output/ml-100k/BSARec.pt (torch, 876374 bytes, 63 tensors)

item_bias f4 [1683]
000000 00 00 00 00 c2 18 24 3e dd f5 58 bd 3c 46 4a be
       0.0 0.1602507 -0.05296885 -0.19753355
000010 ff e8 1c 3e 1c dd 53 3d 63 db 67 3e 8e ec 06 3e
       0.15323256 0.05172454 0.22642283 0.13176176
000020 cc 91 5f 3e cf ef 44 be 02 76 14 3e c1 63 4f 3e
       0.21832961 -0.19232105 0.14498141 0.20252897
000030 62 a0 84 bc 01 b2 b2 3d ba f1 db 3d 39 35 80 3d
       -0.016189758 0.08725358 0.10739465 0.062601514
000040 24 ff 19 be 46 a6 ef 3d 6d 79 c5 bd a6 34 cc bd
       -0.15038735 0.11701636 -0.09642301 -0.099709794
000050 25 19 5b 3e a6 ab 36 3b 9b df e0 3d aa e9 17 3e
       0.2139631 0.0027873307 0.10980149 0.1483523
000060 0d e1 21 3d 82 c7 90 3b cb 41 6f 3e 89 8f 47 3d
       0.039521266 0.0044183144 0.23364942 0.04872087
000070 c9 7d d6 3d 4a a1 f3 3c 61 a6 df bd 18 f7 b8 bd
       0.1047321 0.029739995 -0.10920406 -0.090315044
000080 37 bb a1 3e 32 44 17 3e 9c 94 8e 3d 59 47 9d be
       0.31588146 0.14772108 0.06961939 -0.30718496
000090 73 d4 03 be 2f f3 08 be 31 8d 5e be 5e 69 5f 3e
       -0.12874012 -0.13374017 -0.21733548 0.21817538
0000a0 a5 32 c4 3d 0a 9d e0 bc a7 9a 10 3e 0a 1f be 3d
       0.09579972 -0.027418632 0.14121495 0.09283264
0000b0 fc 2b 68 bd c9 e2 f1 3c cb 52 35 bd 1f 8f 85 3e
       -0.05668257 0.029527085 -0.04426841 0.26085755
0000c0 a8 b9 0a 3e e0 49 ff bd f4 25 85 3d b0 db e5 bd
       0.13547385 -0.124652624 0.065013796 -0.11223543
0000d0 b8 06 39 3e ee 0c f8 bc 33 0c a3 be 12 6a cd bc
       0.18068969 -0.030279603 -0.31845245 -0.025074992
0000e0 3c 99 0b be a6 f3 8b 3c 62 ac f9 bd 1f 71 6b bb
       -0.13632673 0.017083954 -0.121910825 -0.003592558
0000f0 5c 99 06 3e de f6 ee 3b c7 c0 0c be f8 7a fd 3c
       0.1314444 0.0072926125 -0.13745414 0.030942425
000100 8b 9c 67 3e 67 03 7a 3e 8d 44 4d bd 94 7e eb 3a
       0.2261831 0.2441536 -0.050114203 0.00179668
000110 28 5f 07 be 23 55 eb bd 90 21 81 3e cd 24 3d bc
       -0.13219893 -0.11490848 0.2522092 -0.0115444185
000120 40 ee fb bd be 1d 40 bb 05 66 1f be 17 e5 87 bd
       -0.12301302 -0.0029314603 -0.15566261 -0.06635492
000130 ef 31 85 bd 05 c5 ff 3b c3 34 26 bd 69 40 46 bd
       -0.06503665 0.007805469 -0.04057766 -0.04840127
000140 bb 4e 3d 3e 40 63 07 bd 44 39 96 3e 0c cc 54 3e
       0.18487065 -0.033053637 0.29340565 0.20780963
000150 31 32 2d be 33 fe 1b 3e 9b b3 00 3e 78 80 fe bd
       -0.16913678 0.15233688 0.12568514 -0.12426847
000160 f3 f5 01 be 39 68 34 bb 3f 88 8e be 99 44 2c 3e
       -0.12691478 -0.0027527942 -0.27838323 0.16823043
000170 94 37 3c 3e b6 bd fa 3d 43 a7 09 3e 74 4d d7 bc
       0.18380576 0.12243216 0.13442712 -0.02628205
000180 08 b1 3c 3e da d0 98 3d 8c 34 a5 3c 5d 7e 3d 3e
       0.18426907 0.0746171 0.020166658 0.18505235
000190 af c2 83 bd 76 cb 5f 3d 16 3d 6b bd 5e fc 9d bd
       -0.06433617 0.054637395 -0.057431303 -0.07714151
0001a0 ff 10 78 be 47 db da 3d cd 68 29 3b f5 ca b2 3d
       -0.24225233 0.10686355 0.002584982 0.08730117
0001b0 35 21 38 be 6c 09 b3 3d 46 41 4e 3e 96 b3 a3 3d
       -0.17981417 0.087420315 0.20142087 0.07993238
0001c0 2f 2a 21 bd 0b 00 83 3d be 22 33 bd 81 47 8c be
       -0.03934687 0.063964926 -0.043734305 -0.27398303
0001d0 e3 51 35 3e f6 29 5a 3d 5b 33 4d 3e bd 1a 41 be
       0.17707019 0.053262673 0.20039122 -0.18857856
0001e0 ce f7 97 bd 98 e8 2f bd 67 65 20 be 41 ba 46 3e
       -0.07420312 -0.042946428 -0.15663682 0.19406988
0001f0 de d3 f7 3d 1f 9c 53 3d 82 b8 ea 3d 58 1a 0b 3e
       0.12100957 0.05166256 0.11460973 0.13584268
000200 60 6a 21 3d 81 07 38 be 3f 14 0d 3e 9d f9 3e 3d
       0.039408088 -0.17971613 0.13777255 0.04662477
000210 12 2b 61 bd f7 d1 50 3e 26 90 d2 3c b2 13 6f 3e
       -0.054972716 0.20392595 0.025703501 0.23347357
000220 02 f4 07 3a 2a 4a 11 3d 4d 5f 3b be 98 ee 88 3d
       0.00051862013 0.03547112 -0.18298073 0.06686133
000230 e9 72 a1 bc 91 9e 3c 3e 3f 0e 8a 3e 73 89 38 bd
       -0.019708114 0.18419863 0.26963994 -0.045052957
000240 01 89 ff 3a b0 c9 34 3d 38 31 18 be dd 32 06 3e
       0.0019495786 0.044137657 -0.14862525 0.1310534
000250 d1 d2 e3 3d 9a ff 08 be 35 d3 39 3e 99 6c 3d be
       0.111241944 -0.13378754 0.18146975 -0.18498458
000260 95 ae ca bd 79 7b 54 3e 38 6d de 3d 16 08 0b 3d
       -0.0989658 0.20750226 0.108606756 0.03394326
000270 e9 7d 18 3e b2 8f 41 be 33 a6 07 3d 39 1f 49 3e
       0.14891781 -0.18902472 0.033117484 0.19640817
000280 3a bd 5f 3e 2e e7 1b be e1 b9 5f 3e 65 74 8f bd
       0.21849528 -0.15224907 0.21848251 -0.07004622
000290 35 ee 1d 3d a2 e7 0f 3d 62 95 c2 3d f8 1c a7 bc
       0.03855725 0.03513301 0.09501149 -0.020399556
0002a0 d2 fc f3 bd 82 10 10 3c 8b cc c4 3b 4d d0 2e be
       -0.11913456 0.008792998 0.0060058287 -0.17071648
0002b0 27 be 6e be c7 91 d3 3d 9e 46 94 bb 8d 34 d1 bd
       -0.23314725 0.10330539 -0.00452502 -0.102151014
0002c0 5f b4 3a 3e 14 54 2b be a0 9c 30 bd 95 1b db bd
       0.18232869 -0.16731292 -0.04311812 -0.1069862
0002d0 43 b4 fe bd 85 43 07 3e b7 4e 21 3e d4 86 6f 3d
       -0.12436726 0.1320935 0.15752684 0.05847819
0002e0 6c f8 6c 3c 85 69 1e bd 91 d2 5a bd c7 86 29 be
       0.014463525 -0.03867485 -0.053423468 -0.1655532
0002f0 d2 05 92 be de 9d 0d be 5c 73 99 bd 50 cf 15 3e
       -0.28520066 -0.13829753 -0.07492706 0.14629865
000300 65 10 23 3e 4f b9 5e be 8d 2c bb 3c e3 88 41 3e
       0.15924223 -0.21750377 0.022848392 0.18899874
000310 7a 1e 8a 3e 7e 59 00 3e 90 a7 18 3e 98 52 48 3a
       0.26976377 0.12534139 0.1490767 0.0007641702
000320 12 8c 8f bd e4 3b d8 3d fb a7 57 bd af 88 01 be
       -0.07009138 0.10558298 -0.052650433 -0.12649797
000330 ae 5a 16 3e 4e 85 61 bd 39 2f 3b bc d1 ad d7 3d
       0.14683029 -0.05505877 -0.011424833 0.105312
000340 d3 21 11 3e cc 5a c7 bd 18 52 5e 3d 60 09 28 bd
       0.14173059 -0.09734115 0.05427751 -0.041024566
000350 d8 6a 01 be 16 1d 8c be aa 0f 9d bd d8 70 52 3e
       -0.12638414 -0.2736594 -0.07669003 0.20550859
000360 75 77 eb bd eb aa 23 3e 71 1d e6 3d 4c 7f 12 3e
       -0.11497394 0.15983169 0.11236084 0.14306372
000370 fb c7 05 be 51 a1 9e be 62 6a 26 3d 95 09 45 3e
       -0.13064568 -0.3098245 0.0406288 0.19241937
000380 df 72 93 3c fb e0 3a 3e 91 c2 08 be a6 9d 35 3d
       0.01799911 0.18249886 -0.13355471 0.0443398
000390 4f 3e 31 be 11 b0 2a be 4d de a7 3d 1e 36 f7 bd
       -0.17308925 -0.16668727 0.081966974 -0.12070869
0003a0 b4 b4 ba 3c 74 95 57 bd 4f 0f 72 3d a4 73 de bd
       0.022791244 -0.052632764 0.05909663 -0.108619004
0003b0 16 36 41 be 61 d2 68 bd 69 c0 12 3d 8c 17 88 3e
       -0.18868288 -0.056841258 0.035828028 0.26580465
0003c0 71 3a 11 3e 55 e7 4b 3e dd a5 3a 3d 82 7d e5 bd
       0.1418245 0.19912465 0.045568336 -0.11205579
0003d0 a1 d3 be 3c a0 bb 63 bd 75 79 98 3c 77 0d 65 be
       0.023294272 -0.055598855 0.018612603 -0.22368418
0003e0 73 2f 15 3e 07 35 92 be da be 73 3c e6 ef 49 bd
       0.14568882 -0.28556082 0.0148770455 -0.04930105
0003f0 ed 81 cc 3c 3f f2 c2 bd 07 2a aa bd 82 a8 48 3d
       0.024964297 -0.09518861 -0.08308797 0.048988827

item_emb.weight f4 [1683, 64]
000000 00 00 00 00 00 00 00 00 00 00 00 00 00 00 00 00
       0.0 0.0 0.0 0.0
000010 00 00 00 00 00 00 00 00 00 00 00 00 00 00 00 00
       0.0 0.0 0.0 0.0
000020 00 00 00 00 00 00 00 00 00 00 00 00 00 00 00 00
       0.0 0.0 0.0 0.0
000030 00 00 00 00 00 00 00 00 00 00 00 00 00 00 00 00
       0.0 0.0 0.0 0.0
000040 00 00 00 00 00 00 00 00 00 00 00 00 00 00 00 00
       0.0 0.0 0.0 0.0
000050 00 00 00 00 00 00 00 00 00 00 00 00 00 00 00 00
       0.0 0.0 0.0 0.0
000060 00 00 00 00 00 00 00 00 00 00 00 00 00 00 00 00
       0.0 0.0 0.0 0.0
000070 00 00 00 00 00 00 00 00 00 00 00 00 00 00 00 00
       0.0 0.0 0.0 0.0
000080 00 00 00 00 00 00 00 00 00 00 00 00 00 00 00 00
       0.0 0.0 0.0 0.0
000090 00 00 00 00 00 00 00 00 00 00 00 00 00 00 00 00
       0.0 0.0 0.0 0.0
0000a0 00 00 00 00 00 00 00 00 00 00 00 00 00 00 00 00
       0.0 0.0 0.0 0.0
0000b0 00 00 00 00 00 00 00 00 00 00 00 00 00 00 00 00
       0.0 0.0 0.0 0.0
0000c0 00 00 00 00 00 00 00 00 00 00 00 00 00 00 00 00
       0.0 0.0 0.0 0.0
0000d0 00 00 00 00 00 00 00 00 00 00 00 00 00 00 00 00
       0.0 0.0 0.0 0.0
0000e0 00 00 00 00 00 00 00 00 00 00 00 00 00 00 00 00
       0.0 0.0 0.0 0.0
0000f0 00 00 00 00 00 00 00 00 00 00 00 00 00 00 00 00
       0.0 0.0 0.0 0.0
000100 3d 68 9a bf 67 b7 0c bf 57 62 61 be 0b 39 1a 40
       -1.2063061 -0.5496735 -0.2201017 2.4097316
000110 00 3e f7 bf 04 1f d5 3f 2f e5 26 bf 41 fd d4 3f
       -1.9315796 1.665009 -0.65193456 1.6639787
000120 3d 98 17 c0 85 19 96 3f 00 d4 7f 3f 1d 65 a4 3e
       -2.368667 1.1726538 0.9993286 0.32108393
000130 96 5e 4b bf 6d a2 a0 be 1b 37 a7 be 57 da 97 bf
       -0.794412 -0.3137392 -0.3265923 -1.1863507
000140 80 6f c4 3d 5f 2f fc 3e c6 92 02 bf 78 25 b1 3e
       0.095915794 0.4925489 -0.5100521 0.345989
000150 31 ca 72 3d d9 57 6e bf 8d db ac 3f 80 9f 43 3f
       0.059274856 -0.93102795 1.3504502 0.7641525
000160 1e b8 69 3e 67 9e 4e 3f bb b0 21 c0 03 81 2e bf
       0.22824141 0.8071045 -2.5264118 -0.68165606
000170 d9 ee e0 bd 2e 49 03 40 f1 7b 8d bf ab f3 1c 3e
       -0.109830566 2.0513415 -1.1053449 0.15327327
000180 e2 56 8d 3f 35 da 41 bf bc 8b 07 40 2b ad 25 bf
       1.104214 -0.7572358 2.1179037 -0.6471736
000190 50 c7 46 bf 1b 6b 1b bd 23 19 85 3e 5a b5 ee be
       -0.77647877 -0.03794394 0.2599574 -0.46622735
0001a0 47 0a 4d bf 79 1d d1 3e 94 86 d4 bb 6d 2e 99 be
       -0.80093807 0.40842798 -0.0064857695 -0.29918233
0001b0 f6 70 ac bf d7 0d 01 40 df b3 11 40 4d 4a 53 bf
       -1.3471973 2.0164697 2.2766035 -0.8253525
0001c0 7b 26 c4 3e b2 18 08 c0 e3 4d 7a 3f 76 c0 e7 3f
       0.38310608 -2.1265073 0.97775096 1.810561
0001d0 f9 33 78 be e0 0d d5 3f 60 7d a5 3f e3 32 d2 3f
       -0.24238576 1.6644859 1.2928886 1.6421779
0001e0 9f 09 0e be 86 b3 d2 bc 90 95 32 3f 52 d7 25 3f
       -0.13870858 -0.02572037 0.69759464 0.6478168
0001f0 43 0f 03 3f 75 c6 9c bf c1 9d 11 3f bb 25 21 bf
       0.5119516 -1.2248064 0.5688134 -0.629482
000200 40 2e b7 be 16 39 9c bf 33 c5 26 3f c5 77 97 3f
       -0.35777473 -1.2204921 0.6514465 1.1833426
000210 ca b4 fc 3d 24 95 04 bf 13 fd a8 be d2 d8 82 3e
       0.1233917 -0.5179007 -0.3300558 0.25556046
000220 04 da 82 be 23 8b 8f bb 5d 01 01 3f df b9 0e bf
       -0.25556958 -0.0043806 0.50392705 -0.55752367
000230 12 57 b1 3f 28 ae 87 be 84 67 ce bf 58 2e 82 bf
       1.3854697 -0.26500058 -1.612534 -1.0170393
000240 28 5e b8 3f 17 c5 e2 3f 4b 6e 2c 3f 01 e4 8e bf
       1.4403734 1.7716397 0.67355794 -1.1163331
000250 f1 a5 0d 3f 6a be 92 bf 08 15 36 3f cd 47 00 3f
       0.5533133 -1.146436 0.7112584 0.5010956
000260 5a 93 15 c0 e6 61 9e bf a9 2a 37 3f 64 c0 36 bf
       -2.3371186 -1.2373626 0.7154947 -0.71387315
000270 95 8c 50 bf e0 ed 4e 3e e5 2f d4 bd 5a 6f 98 3f
       -0.8146451 0.2020793 -0.10360698 1.1908982
000280 f7 6f d9 be e6 90 53 3e 28 8e 1f bf 6c d8 6d 3e
       -0.42468235 0.20660743 -0.6232629 0.2322709
000290 e2 47 77 3e 9f 60 07 3f 5e fc 23 be a9 7e 0b be
       0.24148515 0.5288181 -0.16014239 -0.13622536
0002a0 e2 aa 78 3c c6 5b 30 3f e7 6f d7 be 2b e5 a0 3e
       0.01517746 0.68890035 -0.42077562 0.3142484
0002b0 27 62 96 bf 23 78 b3 be c5 3b a5 bf 28 fe 99 3f
       -1.1748704 -0.35052595 -1.2908865 1.2030687
0002c0 b4 1c 90 3e 52 14 8f bd a0 0d 0d 3f 9d 00 23 be
       0.281469 -0.06986298 0.55098915 -0.15918203
0002d0 43 a5 34 3f 2d c7 17 3f 33 da 31 3f 13 b2 df 3e
       0.7056467 0.59288293 0.6947357 0.43690547
0002e0 ad 93 ef bd 74 77 8f 3f db 6e b6 bf c6 f8 55 3e
       -0.11698089 1.1208329 -1.425258 0.20895681
0002f0 dd ef 6b 3f 0d d1 cc be fe b3 45 bf e8 c0 7b 3f
       0.9216288 -0.40003243 -0.7722777 0.98341227
000300 e3 91 b9 be c7 c4 f4 3c 80 78 ae be a3 77 8f be
       -0.36244115 0.029878987 -0.3407631 -0.28020963
000310 8c a1 b7 bf 77 31 f9 bf 7a ed 96 bf 89 2a 09 40
       -1.4346175 -1.946822 -1.1791222 2.1432211
000320 59 50 29 bf 28 ce 48 bf 0f 62 dc 3e bd f6 21 be
       -0.66138226 -0.7843957 0.43043563 -0.1581678
000330 3c e6 94 3e 6e 17 27 be 68 ee 34 3f b3 c8 76 3f
       0.29081905 -0.16317531 0.7067628 0.9639999
000340 c6 43 bb bf 7b e7 7c 3f 78 ea 40 3f de 85 73 3e
       -1.4630058 0.9879071 0.7535777 0.23781535
000350 7f 13 a6 3f 95 d9 77 bf 23 8b 3e bf 99 62 e5 3e
       1.29747 -0.9681638 -0.74431056 0.44801787
000360 de 41 9b bd 15 57 c1 bf 12 79 bb 3f c9 09 e5 3d
       -0.075809225 -1.51047 1.4646323 0.11183507
000370 d3 37 dc bf 03 da 0b bf 48 5a 94 bf 77 cd 11 40
       -1.7204536 -0.54629534 -1.1590052 2.2781656
000380 65 0f 79 3e 85 1e 61 3f 02 de 86 3d 73 28 fb be
       0.24322279 0.87937194 0.065853134 -0.49054298
000390 20 3a 6c bf 1b be cf 3f 77 f1 fe be 80 22 21 3f
       -0.9227619 1.622989 -0.49793598 0.6294327
0003a0 d8 0d fa 3f 79 2e 5c 3f ba 2e 4d 3d 14 05 83 bf
       1.9535475 0.8600841 0.05009339 -1.0235925
0003b0 b8 7a b6 3f 76 65 63 3f 95 1f c4 3e d0 f7 20 3f
       1.4256201 0.8882669 0.38305345 0.6287813
0003c0 79 ce 9c 3f 66 05 b7 3f eb e6 1f 3f d9 d1 43 3f
       1.225051 1.4298522 0.6246173 0.7649208
0003d0 4f b6 98 bf d0 f6 b0 be 12 88 36 bf 4c 24 8a 3f
       -1.1930636 -0.34563303 -0.71301377 1.0792327
0003e0 7f 65 8e 3f d9 ef 07 bf 11 07 5d bf 58 06 0a bf
       1.1124724 -0.53100353 -0.8633891 -0.5391593
0003f0 ac e0 87 bf 96 df ba 3e 56 e2 c9 bf 54 f3 83 be
       -1.061544 0.36498708 -1.5772197 -0.25771582

pos_emb.weight f4 [50, 64]
000000 e2 3f e8 bf 36 31 0f be 3b e9 98 be b3 00 ac bf
       -1.8144495 -0.13983616 -0.2986544 -1.3437713
000010 7d 65 ca bf f7 e1 16 bf 2e 17 04 3f 05 62 4b bf
       -1.5812222 -0.58938545 0.5159787 -0.7944644
000020 d3 d5 83 bf ee ec 59 3f 3d f2 44 3f e9 c9 a9 bb
       -1.0299629 0.8512715 0.76932126 -0.0051815403
000030 3f f5 d5 3f 66 a0 eb bf 2b 4b ac 3e 68 b2 b6 3e
       1.6715468 -1.8408325 0.336511 0.35682988
000040 35 70 17 40 18 3d 01 3f 77 bb 9b 3f 09 37 b9 bd
       2.3662236 0.50483847 1.2166585 -0.090437
000050 13 3b 77 bd 89 30 7d 3e 18 91 bd be c0 1e 58 3f
       -0.060359072 0.24725546 -0.3702476 0.8442192
000060 82 e9 eb bf 84 15 8b bf fb 54 5f be af 03 60 3f
       -1.8430636 -1.0865941 -0.21809761 0.8750562
000070 96 40 84 3f 10 00 ca bf 29 21 03 c0 c8 4b f0 be
       1.033221 -1.5781269 -2.048899 -0.46932817
000080 50 ca 6f bf 1f 89 48 3f 45 08 9c 3e ea 5f 41 3d
       -0.9366808 0.7833423 0.3047506 0.04721061
000090 e4 32 13 be 89 33 2a 3e 6d 63 95 bf fd ca fc 3f
       -0.14374882 0.16621222 -1.1670967 1.9749447
0000a0 21 60 8c 3f 5f 6e 57 3f 56 83 e7 3f f7 9b f0 3d
       1.0966836 0.8415279 1.8086956 0.11748498
0000b0 f9 d0 66 bf be 59 0c bf cc d2 23 bf 87 31 10 3f
       -0.90162617 -0.54824436 -0.63993526 0.5632557
0000c0 b5 17 88 3f c5 1f ad bd 01 58 f0 3e fa d8 0b c0
       1.0632235 -0.08453325 0.46942142 -2.1851182
0000d0 1a 31 cc be 8b e0 2c bf bc 24 f8 3f b0 6a 68 be
       -0.39881212 -0.67530125 1.938621 -0.22696948
0000e0 b2 84 1c 40 bf f9 9c 3f 62 d2 06 bf 0f 8a 03 bf
       2.445599 1.2263716 -0.5266477 -0.51382536
0000f0 9a 41 bf 3f 92 dd a3 3e 4e 60 ba bf 21 6e 35 3e
       1.4941895 0.32004982 -1.456064 0.17717792
000100 75 1c e6 3f 9b e5 18 3f 72 14 96 3f 89 9b d8 be
       1.7977434 0.5972535 1.172499 -0.42306164
000110 0f ad 2d 3f a5 b7 db 3c fa b7 bd 3e 6f ed 57 3f
       0.6784219 0.026820967 0.37054425 0.8434667
000120 ab c8 a5 be 48 3a 18 bf e4 1e f5 3e 75 01 6d 3f
       -0.3237966 -0.5946393 0.4787513 0.9258035
000130 e5 af 2b bf 15 0f 94 3d b2 65 af be a7 1e d5 be
       -0.6706527 0.07229439 -0.34257275 -0.41624948
000140 c9 4d 86 3f 6a e2 04 3e a8 4e ca bf 5b ed 11 be
       1.0492488 0.12976995 -1.5805254 -0.142507
000150 86 8e 1b bf 1a 7b 11 3d 97 b8 52 bf e4 59 3a 3f
       -0.6076435 0.03551779 -0.8231291 0.7279341
000160 63 06 97 3f 81 6f 6d bf 94 3a f6 3f 8a b3 b8 bf
       1.1798824 -0.92748266 1.9236627 -1.4429791
000170 d1 01 dd 3f f3 e9 49 3f ca 04 79 3e 20 a7 01 3f
       1.7266179 0.78872603 0.24318233 0.5064564
000180 4b 6c 97 3f 4d 2d be 3f 88 35 48 bf 8f 7b f3 3f
       1.1829923 1.4857575 -0.7820668 1.9022082
000190 c5 41 2f 3f a0 32 47 3f 33 7a 9f 3f ed e2 c0 3e
       0.6845973 0.7781162 1.2459167 0.3767313
0001a0 dd 9a de 3d e7 80 67 3f bb c2 6f 3d 85 b1 b2 bf
       0.108693816 0.90431064 0.05853532 -1.3960425
0001b0 c3 dd f3 3e d8 e8 aa 3f be b1 2e 3f 30 27 47 3e
       0.47630128 1.3352308 0.68239963 0.19448543
0001c0 99 7d 57 3f e9 6f 78 3f 2f 9c c8 3f 83 52 88 3e
       0.8417602 0.9704576 1.5672663 0.2662545
0001d0 bb ff 20 bf 91 fa 24 bf 90 1d 3e 3f 5e 7f 82 3f
       -0.62890214 -0.64444834 0.7426386 1.0195119
0001e0 af 7c 7a 3f ca ef de 3d 96 11 81 3d c9 3d f3 3f
       0.978465 0.1088558 0.063021824 1.900323
0001f0 46 6e cf be 12 73 60 bf 46 4a 91 3f cd 1d d7 bf
       -0.4051382 -0.87675583 1.1350791 -1.680597
000200 9f 41 fe be 8d 90 a5 bf 5d 4b 25 3f b7 08 a6 bf
       -0.4965944 -1.2934738 0.6456812 -1.297141
000210 49 62 04 bf 5c 67 d3 3f 8e 6d e5 be 57 e6 c6 3f
       -0.5171247 1.6515918 -0.44810146 1.5539044
000220 1a ac 5c 3f a7 cd 23 bf e1 49 ad 3f f0 b5 7d 3f
       0.86200106 -0.63985676 1.3538171 0.9910574
000230 c2 a4 f6 be 56 23 f6 3d f6 71 21 bf 21 96 6a 3f
       -0.48172575 0.120184585 -0.63064516 0.9163533
000240 4d 8e aa 3e e7 83 d7 bd 4e 92 49 bf af 68 4b 3e
       0.33311692 -0.10523205 -0.7873887 0.19864152
000250 86 a1 16 bf b1 cd e9 bd 08 33 8b be 91 91 f9 be
       -0.58840215 -0.11416186 -0.2718737 -0.4874387
000260 5d 29 99 bf 24 28 1f c0 a7 18 16 40 21 b0 be 3e
       -1.1965748 -2.486825 2.3452547 0.3724375
000270 b8 43 94 3f 05 3f f4 be a0 62 99 3e cc 95 12 3e
       1.1583166 -0.4770433 0.29958057 0.14314955
000280 68 00 68 3f 67 30 39 40 6c bf a3 3f 65 f4 af be
       0.9062562 2.8935792 1.2792792 -0.34366146
000290 c8 e2 1f bf ac df a0 3e d2 d0 34 3e b6 d6 d9 be
       -0.62455416 0.31420648 0.17657784 -0.42546624
0002a0 17 9a 82 bf 06 c3 b5 bf 1a a2 1a 3f d4 e2 64 be
       -1.0203274 -1.4200141 0.604036 -0.22352153
0002b0 95 2e 04 40 98 e1 2d bf 43 73 41 be d3 d0 95 3e
       2.0653431 -0.67922354 -0.18891625 0.29260883
0002c0 39 2b 82 3d 98 b0 2e 40 0b 0e 23 3f 2b f8 eb be
       0.063559 2.7295284 0.636933 -0.46087775
0002d0 bd 27 d9 be 88 e2 dd 3e 6d 93 04 3f 68 6d 81 3b
       -0.4241313 0.43336892 0.51787454 0.00394981
0002e0 ee d1 e1 bf 4b 3c 88 bf 8f a2 fa be 19 7a 6a bf
       -1.764219 -1.06434 -0.48952147 -0.91592556
0002f0 bc 89 6e bf 3c 25 8d be 4e cb 06 bf 8f 1a a6 bf
       -0.93178916 -0.2756747 -0.5265397 -1.2976855
000300 70 5c 2c bf cb ad 70 bf 06 1a 75 3f 62 29 a4 3e
       -0.6732855 -0.9401519 0.95742834 0.32062823
000310 e5 9f 41 3f 0c 34 2f bf 36 1a 5b 3f fc e0 ef 3f
       0.75634605 -0.6843879 0.8558687 1.8740535
000320 2c 8f 69 be a0 89 4e be 4c 97 c4 bf 46 cf 4a 3e
       -0.22808522 -0.20169687 -1.5358672 0.19805631
000330 93 75 c1 bf ce f0 9b be 85 4b e8 be 98 89 57 3f
       -1.5114006 -0.30457157 -0.45370117 0.84194326
000340 ac 11 85 3f 62 66 da 3f 26 f1 7e bf 84 5b 9c 3f
       1.0396018 1.7062495 -0.99586713 1.2215428
000350 5a 90 71 bf c8 43 5c bf 83 03 f1 be 28 6f 7f be
       -0.9436089 -0.86040926 -0.47072992 -0.24944746
000360 a7 4d 66 3f 34 dc 9c bf e7 96 bb 3e 58 9f a9 3e
       0.8996224 -1.2254701 0.36638567 0.33129382
000370 e5 96 51 bf 36 e1 15 bf a6 e5 6f 3f 77 a0 89 be
       -0.8187087 -0.5854677 0.9370979 -0.26880237
000380 40 25 8b 3f b5 f9 05 3f db 29 16 bf 7c a8 d5 3e
       1.0870743 0.5233415 -0.58657616 0.41730106
000390 3d 6f 51 bf 00 71 0b 3e 71 ea e0 3e 95 7e 27 3e
       -0.8181036 0.13617325 0.43928865 0.16356881
0003a0 3b 45 b6 bf 3e 7d 2a 3f b7 79 45 bd 65 e8 82 bf
       -1.4239877 0.66597354 -0.04821178 -1.0227171
0003b0 52 8e 8e bf ac e3 f0 3c bb 17 d1 3f d2 14 a5 bf
       -1.1137183 0.029405437 1.6335367 -1.2896979
0003c0 fe dc 0d bf 70 dd 07 40 60 08 e3 be c5 3d 9b be
       -0.5541533 2.1228905 -0.44342327 -0.30320564
0003d0 f7 64 a1 be 5e ca c8 be 92 fd 69 bf cf 89 94 bf
       -0.31522343 -0.39216894 -0.9140254 -1.1604556
0003e0 f8 72 35 bf ce 9b 78 3f ef d8 82 3e c1 f6 1a 3f
       -0.70878553 0.9711274 0.25556132 0.60532767
0003f0 21 5b 80 bf 59 5e 2f 3c 94 f7 bb be b2 ca b6 3e
       -1.002781 0.010703647 -0.36712325 0.3570152

attention_blocks.0.attention.in_proj_weight f4 [192, 64]
000000 d5 0f e5 3d 26 5b 32 be c9 9d c8 bc 48 0f 87 3b
       0.1118466 -0.17417583 -0.0244893 0.0041216947
000010 5b c4 c9 3d 27 f7 6d 3c 6b ae e7 bd 5b b2 ff 3d
       0.09851905 0.014524258 -0.113125645 0.124851905
000020 18 d5 f5 3d 60 f9 ce 3d ed 74 fc bd 18 7d 08 be
       0.12003535 0.10106158 -0.12326989 -0.1332897
000030 3b 38 e2 bd 1b 0a 1e 3e af 1b 2e bd f1 24 05 be
       -0.11045881 0.15433542 -0.04250687 -0.13002373
000040 d2 a2 aa bd dc f4 0b 3e 15 1f a5 3d 45 50 56 bd
       -0.08331837 0.13667625 0.08062569 -0.052322645
000050 0c 6d e6 bd 67 d9 f2 bd 36 e5 a9 bb 96 5b 4c 3d
       -0.11251268 -0.118578725 -0.005184795 0.04989203
000060 5e 2b ae 3d ba 45 98 3b a6 fe a9 3b 80 f0 8d 3c
       0.085043654 0.004646984 0.005187827 0.017326593
000070 a8 3c e9 3d 56 95 c5 bc b8 2d ed bd 95 9d 83 3d
       0.113885224 -0.02411906 -0.11580986 0.06426541
000080 2f 67 a4 bd b9 07 10 3e c4 20 f3 3c 92 67 83 3c
       -0.08027493 0.14065446 0.02967871 0.016040597
000090 7a 40 ad bc 24 f5 61 3b 56 a5 08 3e e0 b5 eb 3d
       -0.021148909 0.003447839 0.1334432 0.11509299
0000a0 7a 7d 9c 3d 43 ad 4a 3d 3c a2 ce bd 2d 2d 11 be
       0.0764112 0.04948164 -0.100895375 -0.1417739
0000b0 f6 97 2d 3d 70 40 f7 3d 4c 33 21 3e fc 6d 74 3b
       0.04238125 0.12072837 0.15742224 0.0037297
0000c0 95 40 9c bd e4 26 29 3c 84 28 8a 3a 34 47 99 3d
       -0.076295055 0.010324214 0.0010540639 0.07484284
0000d0 e2 36 10 be 73 e4 21 bd 86 79 ee bd f5 23 d2 bd
       -0.14083436 -0.039524507 -0.116442725 -0.102607645
0000e0 c4 ed 25 3e a4 b3 01 be ba 93 4d 3d 08 fb 91 bc
       0.16203982 -0.12666184 0.05018971 -0.017819896
0000f0 f3 dc 54 3c 96 74 28 be 05 d7 c0 bd 43 0f b2 bc
       0.0129921315 -0.16450724 -0.09416012 -0.021735793
000100 45 c7 00 3d 9d 30 44 bd 9e e0 45 bd 24 83 6e bd
       0.03144004 -0.047897924 -0.048309915 -0.058230534
000110 d0 85 be bd fa 26 7e 3d ce a8 84 3a 9b eb d7 bd
       -0.093028665 0.06204889 0.0010121108 -0.10542985
000120 02 36 f8 3d 38 5a 19 be 77 ce c2 bd cb e3 00 bc
       0.12119676 -0.14975822 -0.09512036 -0.00786681
000130 9c a7 37 bc 24 3b 35 3d 72 2f 94 bd fd 20 e8 bc
       -0.011209395 0.044245854 -0.07235612 -0.028336043
000140 d1 1b ed 3c 09 7c e9 bc 96 57 89 3d 2b 26 02 be
       0.028943928 -0.028501527 0.06706159 -0.12709872
000150 26 7f 37 3c cd 22 c7 3d db e9 c3 bd 6c 7c 90 bd
       0.011199748 0.097234346 -0.09566089 -0.070549816
000160 6e 56 22 3e 41 bc ff bd bd 80 32 3d 21 ed b8 3d
       0.15853283 -0.124870785 0.043579806 0.09029604
000170 65 e9 3b bd 86 20 a5 3c ed 42 b3 3d 1a 0b 51 bd
       -0.04587688 0.02015711 0.087529995 -0.051035978
000180 5c 64 e2 bd 76 01 74 ba 3b 5f af bd e5 a0 b2 bd
       -0.11054298 -0.0009308079 -0.08563086 -0.087220944
000190 13 c7 d5 bd 9e 79 ba bd 69 db dd bd 0b be 92 3d
       -0.10438361 -0.09105228 -0.10832865 0.07165154
0001a0 44 fd ce 3d 46 b7 ca bc 3e a4 9a bd db e5 12 3e
       0.101069 -0.024745595 -0.07550858 0.14345495
0001b0 bf cf e7 3d 50 95 da 3d 3b 9d 99 bd 39 9d e0 bd
       0.11318921 0.1067301 -0.075006925 -0.10967488
0001c0 4f dc 1f 3c 80 c8 09 be 95 90 ae 3d e6 1b 07 be
       0.0097571155 -0.13455391 0.085236706 -0.13194236
0001d0 09 02 9a 3d 94 cf 1d be bc 88 c7 bd e0 e9 4e 3d
       0.075199194 -0.15411216 -0.09742877 0.05051601
0001e0 5a 88 72 bd c9 ab 19 3d f8 c9 b5 3c d8 50 b1 3c
       -0.059212066 0.037517343 0.022191033 0.021644995
0001f0 dc de 83 bb 29 1b af bd 7b e3 89 3d ef a3 02 3e
       -0.0040243696 -0.08550102 0.067328416 0.12757848
000200 ff 57 d0 3d 7e 1d d3 bd a6 a4 03 3e d8 f3 06 3e
       0.10173034 -0.103083596 0.12855777 0.13178957
000210 a8 6a 27 3d 11 32 c1 bc dc 97 82 3d 1c 37 98 bd
       0.0408732 -0.023583444 0.06376621 -0.07432386
000220 7f 58 40 bd 7c 55 99 bd 11 f2 bf bd be 31 b4 bd
       -0.046959396 -0.07487008 -0.093723424 -0.0879855
000230 55 cb e0 bd ab 60 00 3e 38 0d c0 3c 25 8a 08 bc
       -0.109762825 0.12536876 0.023443803 -0.0083337175
000240 8b 16 de bd 99 90 ed bd 95 9a 7f bd 46 36 f5 bd
       -0.108441435 -0.115998454 -0.06240328 -0.119732425
000250 69 3c 3e 3d a4 0a 1d bd b4 e9 4d 3c 03 2f 6c 3d
       0.04644433 -0.038340226 0.012567926 0.05766202
000260 2a 6f 57 3c 2d 06 26 bd ce 91 ce 3d 79 8e 32 bc
       0.013149062 -0.040533233 0.10086404 -0.010898226
000270 87 f9 5b bd 71 e8 21 3e 6a b6 4a bc f5 9b 14 3d
       -0.053704765 0.15811326 -0.012372592 0.036281545
000280 2d ec d4 3d a2 a8 0c bd 88 d5 0c 3e 1f 2a e1 bd
       0.103966095 -0.03434051 0.1375333 -0.10994362
000290 ff 56 01 3d 4d 77 87 bd f0 1c c4 bd fc 56 8a 3c
       0.031577107 -0.06614552 -0.09575832 0.01688718
0002a0 9f 57 a7 bd 5f 09 a0 bd 3d 90 ca bc f8 0b bc 3d
       -0.08171009 -0.078142874 -0.024726981 0.0918197
0002b0 f8 77 b3 bd 2f 04 27 3d 4a 27 79 3d 1c 30 66 bd
       -0.087631166 0.040775474 0.060828485 -0.056198224
0002c0 18 6e a4 3d 55 5d 02 3e 6c 6a 1e be 12 a6 ba bd
       0.08028811 0.12730916 -0.15470284 -0.09113707
0002d0 04 01 9f bd 64 00 b0 bc cb 9d 33 3e f5 97 c5 3d
       -0.077638656 -0.021484561 0.17540662 0.09648124
0002e0 d2 93 a7 bd 2a 62 4d 3d 3e 1f 7d 3d 73 a4 90 bd
       -0.08182491 0.050142445 0.061797373 -0.07062616
0002f0 e3 f2 8d bd 61 4b e7 bd 63 69 85 bd 4b 54 6d bd
       -0.069310926 -0.11293674 -0.065142415 -0.057941716
000300 e7 da d6 bd 78 36 f9 3d 1d c8 28 bd 5a bb 87 ba
       -0.10490971 0.12168592 -0.041206468 -0.0010355518
000310 b4 1c 08 be 38 ca c7 bc d6 56 8c 3d 45 f9 4c bc
       -0.132922 -0.024388418 0.068525 -0.012510602
000320 a9 47 98 3d 3d 3c c5 bd ed a8 d8 3d 61 6f 77 bd
       0.07435543 -0.0963063 0.10579095 -0.060408954
000330 ed 83 c3 3d d4 90 0f be f1 01 5a 3d 0b 0a 42 be
       0.09546647 -0.14020091 0.053224508 -0.18949144
000340 7e 3a 76 3d f0 c2 88 3c 11 c3 e5 bd 48 52 c3 3d
       0.060114376 0.016694516 -0.112188466 0.09537178
000350 48 2f 20 be ea 1e 81 3c 73 d4 d1 bd 7d b6 1f bb
       -0.15643036 0.015761811 -0.102455996 -0.0024370246
000360 b7 a9 bc 3c 26 e4 9e 3d 47 5d ca bc ad fa f1 3c
       0.023030145 0.077583596 -0.024702681 0.029538477
000370 c7 4d 26 be c2 99 7d bd 68 e3 9d 3d c8 10 0a be
       -0.16240607 -0.061914213 0.0770939 -0.13482964
000380 8c 51 af 3d 46 fb 55 bd ee 51 10 3e ff b8 9f bd
       0.08560476 -0.052241586 0.14093754 -0.07798957
000390 b7 e2 c9 bd 1f 65 f0 bd ee d8 aa bd 1e 61 ab bd
       -0.098576955 -0.11738037 -0.08342157 -0.08368133
0003a0 90 7b b7 bd 86 18 97 bd a6 53 4b be fc a5 2f 3d
       -0.089591146 -0.07377724 -0.19856128 0.042882904
0003b0 e7 cb 09 be 3a 41 38 3e 1d d6 02 3e 08 d1 fa b9
       -0.13456689 0.17993632 0.1277699 -0.00047839456
0003c0 73 1f ac bd 06 2f 73 3d 53 ff 1b 3e ab ed dc bc
       -0.08404436 0.059371017 0.15234117 -0.026968798
0003d0 dd c9 98 bd 3f 70 00 3e 0f be 0b 3e 92 25 e9 3d
       -0.07460377 0.12542818 0.1364672 0.11384119
0003e0 d3 58 e0 3d d4 98 07 3d a7 6a 73 3c 46 b4 db 3d
       0.10954442 0.033104733 0.014856971 0.10727744
0003f0 19 31 37 3e 1e 7c f7 3d d1 0b 9f bd 1e 2c 13 3e
       0.17889823 0.1208422 -0.07765926 0.14372298

attention_blocks.0.attention.in_proj_bias f4 [192]
000000 e1 da 97 bb 23 f6 e5 3c b6 39 e2 3d ca 17 be bd
       -0.0046342467 0.028071469 0.11046164 -0.09281881
000010 18 11 37 3d a8 19 5b 3d 60 5f 88 3d 54 32 09 bc
       0.044694036 0.053491265 0.06658816 -0.008373816
000020 21 10 ad bb c8 44 0d bd 11 86 6a 3d a3 f8 bc bc
       -0.0052814637 -0.034489423 0.057256762 -0.023067778
000030 5f 58 9a bd fe 2b 4c 3d da a8 d7 3d 06 fe 5c 3a
       -0.07536387 0.04984664 0.10530253 0.00084301864
000040 6c 76 da ba 25 73 36 3d e1 80 01 3d f9 74 f5 3a
       -0.0016667373 0.044543404 0.03161705 0.0018726877
000050 72 bb 66 3c f7 2b 38 bd c6 48 03 3d 4b 02 53 3d
       0.014082776 -0.044963803 0.032051824 0.05151586
000060 1e 4c 38 3d c9 4f 31 3d 78 fd 02 bd a4 01 70 3c
       0.044994466 0.04328898 -0.031980008 0.014648829
000070 f8 f4 5b 3d c2 b0 5a be 07 07 d6 bd 6c 91 a1 bc
       0.053700417 -0.2135649 -0.10450559 -0.019722663
000080 5c 89 e7 bb c0 50 b7 bd 05 25 1c bd 0e 0e bc 3b
       -0.007065935 -0.08950949 -0.038121242 0.00573898
000090 89 9a 16 bd fd 41 c8 bb 1c eb 93 3c 63 2e 42 bd
       -0.03676847 -0.006111382 0.018056445 -0.04740752
0000a0 69 23 d3 bc 54 63 30 3d d2 91 10 bd 7f 7b c4 bc
       -0.02577372 0.043063477 -0.035295315 -0.023984669
0000b0 b5 27 56 bc 5d 6f 7f bd 98 9d 03 bd 31 f6 4a bd
       -0.01307099 -0.062362064 -0.032132715 -0.049551193
0000c0 d4 66 40 bb 8c bf 05 3d df d2 aa 3d 45 57 f2 3c
       -0.0029358165 0.032653376 0.08341002 0.029582629
0000d0 7d e8 bc 3d a4 3e 13 3b 31 e8 b3 bd c2 18 e1 bc
       0.09224031 0.0022467757 -0.08784521 -0.027477626
0000e0 89 97 63 3d d2 8b 13 3d 51 e7 2b bc fc 67 e0 bd
       0.055564437 0.036022015 -0.010492162 -0.109573334
0000f0 8c 0c 93 3d 49 49 33 3d 2f dd 6f 3d 95 de 86 3c
       0.071801275 0.043771062 0.058560546 0.016463557
000100 10 c3 1e ba 15 a9 a0 ba 6d 72 6f 39 ec 80 18 3b
       -0.0006056288 -0.0012257422 0.00022835443 0.0023270203
000110 04 8c f0 ba 18 09 a7 3a d1 f6 f0 ba d8 65 5f 39
       -0.0018352275 0.0012743799 -0.0018384104 0.00021304877
000120 3f 16 b5 39 1a 72 4d 39 73 5c 81 39 74 64 67 3a
       0.00034539585 0.0001959283 0.00024673677 0.00088269194
000130 bf 2b 91 b9 f2 36 82 ba ca cf 83 3a e6 0d a1 b9
       -0.0002768915 -0.0009934588 0.0010056433 -0.00030718668
000140 a0 5c 99 b8 a5 59 b8 39 d6 8b 12 3a 40 65 6d 3a
       -7.312861e-05 0.00035162005 0.0005590295 0.000905592
000150 47 14 09 b8 74 9d 6a 3a 03 e4 1b 3a 05 25 51 39
       -3.268223e-05 0.0008949854 0.0005946757 0.00019945584
000160 5c a7 cc ba bd b5 0e ba cf 8a 0e bb 72 74 b0 ba
       -0.0015613842 -0.0005443951 -0.0021750217 -0.0013462438
000170 8c 59 8c ba ef a4 d3 37 06 7b 2a ba 39 a4 cf b9
       -0.0010707839 2.5229963e-05 -0.0006503317 -0.00039604472
000180 ab 29 d5 3a c3 0b c1 39 fb 1b 48 3a fb 2d 0a ba
       0.0016263028 0.00036820592 0.0007633564 -0.0005271134
000190 6e 5a 09 ba dc 65 90 b7 d0 46 9d ba b9 38 00 b9
       -0.00052396103 -1.721357e-05 -0.0011999253 -0.00012228162
0001a0 77 ab cf 3a a1 74 7d b9 60 f6 f1 b9 0e 3e 2e 39
       0.0015843947 -0.00024171408 -0.00046150666 0.0001661705
0001b0 93 f2 89 b8 16 55 ad 3a 6e 2e 06 3a 92 6e 84 ba
       -6.577852e-05 0.001322421 0.0005118613 -0.0010103753
0001c0 3c 88 84 3a c5 88 97 b9 ca f6 71 38 ef 5f 87 39
       0.0010111402 -0.00028902866 5.7688718e-05 0.00025820683
0001d0 0a dc 6b 3a a7 d5 d5 ba df 23 14 3a 3e 32 b1 39
       0.0008997327 -0.0016314284 0.0005651097 0.00033797504
0001e0 18 c1 03 3a 50 c1 c5 3a 07 5b a0 39 1a eb 87 ba
       0.00050260266 0.0015087519 0.000305854 -0.0010369748
0001f0 9b 1e b0 3a 69 c5 9e b9 8b fc 61 b9 6d ae c3 b9
       0.0013436856 -0.0003028319 -0.00021551752 -0.00037323256
000200 79 a2 87 3d 8a ee 63 bc 22 a5 b2 bd c2 ec c9 bd
       0.06622786 -0.013911853 -0.08722903 -0.09859611
000210 ec 9c 32 be 14 a9 02 3e c4 85 ea 3d f2 f4 0c be
       -0.17442673 0.1275981 0.11451295 -0.13765314
000220 d8 2a 19 bd 60 9d d2 3c 98 54 67 3d 91 84 c4 3c
       -0.037394375 0.025709808 0.05647716 0.023988994
000230 3c 19 16 b9 ee 5c 15 3d 4c 67 3c be 49 58 88 3d
       -0.00014314515 0.036465578 -0.1839878 0.06657464
000240 d1 e4 88 3d b1 90 f2 bd 5b 32 ce bc 48 a4 ac 3d
       0.06684268 -0.11844004 -0.025170496 0.08429772
000250 b3 67 10 be ad a2 1e be 41 aa 09 3d 8d 7b 2b be
       -0.14102058 -0.15491743 0.033609632 -0.1674635
000260 7b 8b 33 bd 16 22 30 3e e4 1e c9 3d 5f 7e 25 bd
       -0.04383419 0.17200503 0.09820345 -0.04040372
000270 84 8f 9a 3c fe aa 30 3e 99 7d 93 3b 00 7a 14 be
       0.018867262 0.17252728 0.0045010564 -0.14499664
000280 40 74 fb bd 03 b8 cf 3a 3c 71 e5 3d 13 28 92 bd
       -0.12278032 0.0015847686 0.11203238 -0.0713655
000290 2f 2f 5b 3d 26 fd 21 be 99 bb 81 bb 74 66 f0 bd
       0.053511795 -0.15819225 -0.003959131 -0.117382914
0002a0 b7 ed 3f bd d5 6b 33 bd 9c 64 e2 bd 51 52 04 3d
       -0.046857562 -0.04380401 -0.11054346 0.032305066
0002b0 1e 5c 87 bd 26 63 0d be 13 f2 4f 3d 6c 0c 3a 3e
       -0.06609367 -0.13807353 0.05076797 0.18168801
0002c0 b7 52 00 be 84 11 44 3e 9d 81 b1 bd a7 a9 46 3d
       -0.12531553 0.19147307 -0.086673 0.048501637
0002d0 c9 5b cd bd 08 b8 89 3d 3e b9 b9 bd 97 7f f2 3d
       -0.10027272 0.06724554 -0.09068535 0.11840742
0002e0 dc b8 e6 bc 30 ca 06 3e 9b 09 82 3e f3 37 bd bd
       -0.02816432 0.13163066 0.25397953 -0.09239187
0002f0 1c 00 5f 3d 28 96 ec 3d 85 b1 b3 bd a5 3e c0 bc
       0.054443464 0.115520775 -0.087740935 -0.023467371

attention_blocks.0.attention.out_proj.weight f4 [64, 64]
000000 fc 5e ea bc b8 1c fe bd 84 c2 a6 3c e5 ca 24 3e
       -0.028609745 -0.124078214 0.020356424 0.16093023
000010 2a 82 94 3d 7d 6f 80 3d 4f 14 03 bd 72 57 a7 3d
       0.07251389 0.06271265 -0.03200179 0.08170976
000020 68 87 f4 bd 8a 87 6e bd c9 57 ba bd 14 5a b4 3d
       -0.11939889 -0.05823473 -0.09098775 0.088062435
000030 8c ac c7 bc ed 8f 02 3e 5c 3b c1 bd c5 ca fd bd
       -0.024374269 0.12750216 -0.0943515 -0.12392191
000040 ee ff de 3c 9e 24 70 bd 6a e6 db 3d a3 70 b2 bd
       0.027221646 -0.05862867 0.10737307 -0.0871289
000050 99 97 74 3d 79 99 58 bd 78 3d aa bd d9 50 f2 3d
       0.059714887 -0.052880738 -0.083125055 0.11831827
000060 65 5e 35 bd 1f f3 1f 3c 01 63 8e 3d 6a c5 35 bd
       -0.044279475 0.009762554 0.06952477 -0.04437772
000070 fa 31 95 bd b6 bc 68 3d a9 0c e2 bd 5e 2d 97 bd
       -0.07284923 0.056820594 -0.11037571 -0.073817
000080 b2 c5 bf bc 42 a5 50 bc 02 d4 3b bd d0 42 79 3d
       -0.023409698 -0.012734713 -0.045856483 0.060854733
000090 55 ed 9d bd 61 0c f1 3d f4 1b 0e bc 24 6f 35 3c
       -0.07711283 0.11769939 -0.008673657 0.011073861
0000a0 d0 34 99 bd ac 37 f0 3d 4a b0 3f 3d c5 bc b1 bc
       -0.07480776 0.117293686 0.04679898 -0.021696458
0000b0 eb f5 92 bd 66 c0 f1 3d 55 d6 f2 3d b0 db c8 3d
       -0.071758114 0.11804275 0.11857287 0.09807527
0000c0 d6 40 aa 3d 02 ef 2a 3d 7f 63 71 3d 50 a6 99 bc
       0.08313148 0.04173184 0.058932777 -0.018756062
0000d0 e0 4a 60 bb da 80 c8 bd 1f c7 a3 3d dd d7 c4 3c
       -0.0034224316 -0.097902015 0.07996964 0.024028713
0000e0 38 0f 35 bd 8b 51 c0 bd cf cb 0b bd a0 89 dd bc
       -0.044203967 -0.09390553 -0.034129914 -0.027043164
0000f0 f5 10 8a 3d 9f 87 c5 3d 5f 05 16 3d 11 0f 4e bd
       0.067415155 0.09645008 0.036626216 -0.050307337
000100 ca 2c 62 3d 66 ae ea bd ae cb 0d bd 4b 72 27 be
       0.055218495 -0.11459045 -0.034618072 -0.16352193
000110 21 6e b8 bb df af 28 3d 3d 0d d7 3d b7 ba fe bd
       -0.0056283628 0.04118335 0.10500572 -0.12437957
000120 00 c0 f9 bd cc aa 9b 3c 47 18 aa 3c 43 b7 2a bd
       -0.12194824 0.01900234 0.02076353 -0.04167868
000130 26 52 7e 3d 1a 57 ca 3d 5d ca 19 be 20 d0 c9 3d
       0.06209006 0.098798946 -0.15018602 0.0985415
000140 96 dd 8b bd 67 55 92 bd d1 d4 80 3c fc 75 ff 3d
       -0.068293735 -0.071451955 0.015726479 0.124736756
000150 ec f0 25 be cc 8f 38 bd 13 53 95 bd 81 76 7f bd
       -0.16205186 -0.04505901 -0.07291236 -0.062368874
000160 4b 55 92 bd a8 72 30 3e dc 27 2d bd 39 bc 16 be
       -0.071451746 0.17231238 -0.04227434 -0.14720239
000170 83 fa 75 bd 82 2c 52 3d bb f5 4e 3d f7 40 f2 bd
       -0.06005336 0.051311977 0.050527316 -0.11828797
000180 12 4a a2 bd e7 0c ec bc db 74 01 bd 77 01 ca 3d
       -0.07924284 -0.028814746 -0.031605583 0.09863561
000190 27 23 87 3d 61 7b 61 bd 91 72 14 bd 64 7c 12 be
       0.06598502 -0.055049304 -0.03624207 -0.14305264
0001a0 4a fe 54 3d 95 45 76 3d bc 7d 9e 3d f9 07 36 bd
       0.05200032 0.060124952 0.07738826 -0.044441197
0001b0 88 cc b4 bd 8c 91 2b be 88 bc c8 3c 91 db cd 3d
       -0.08828074 -0.1675474 0.024503961 0.100516446
0001c0 a9 ec 7f bd c3 55 27 3e 44 84 80 bd 9a d6 d5 3d
       -0.062481556 0.16341309 -0.06275228 0.104413226
0001d0 db e4 ef bd 5b f7 22 3d 98 41 43 be f9 4d 8d bd
       -0.117135726 0.039786678 -0.19067991 -0.06899638
0001e0 eb fe a9 bd dc e9 27 3e 9f 27 64 3d 06 ad b9 bd
       -0.08300575 0.16397804 0.055701848 -0.09066205
0001f0 54 f9 18 3c 93 0a 07 3e f2 92 42 bd 89 99 b2 bd
       0.009336788 0.13187627 -0.04750342 -0.08720691
000200 01 2b 02 bd fb bb 97 bc 17 fa aa 3d 56 ff eb bd
       -0.031779293 -0.018522253 0.08348482 -0.11523311
000210 fa 05 bf bd d5 54 56 bd ad 64 1f bd e2 40 e1 bd
       -0.09327312 -0.052326996 -0.03891437 -0.109987035
000220 c8 ec 6a bd 39 78 aa bd 4b 07 c0 bc 00 fb 81 3d
       -0.05735472 -0.08323712 -0.023440978 0.063467026
000230 4f cf 21 be 34 d9 98 3d 9b 55 0b 3d a5 b9 a5 3d
       -0.15801738 0.07463303 0.034017187 0.080920495
000240 79 6e e4 3c b5 04 bf 3d 8b e5 49 bd c3 0e 9b bd
       0.027884709 0.0932707 -0.049291175 -0.07571175
000250 26 55 0b 3e dd cf f4 bd d2 b3 f6 3c 86 ce 6b bb
       0.136067 -0.11953709 0.030115042 -0.0035981252
000260 89 4b d7 3d e0 58 88 3d 17 c3 94 3d d4 eb 18 3e
       0.10512454 0.066575766 0.07263773 0.14933711
000270 0c 88 ed bd 15 65 2c be e7 fa e2 3d a7 02 b0 bc
       -0.115982145 -0.16835435 0.11083012 -0.02148564
000280 63 3d e5 3c 36 7a f9 3d 3d 08 75 3d 2e f4 08 3e
       0.027983373 0.12181513 0.05982231 0.13374397
000290 09 e3 a7 bd b3 a8 91 3d c3 bf f7 3c bd 0e 78 bd
       -0.081976004 0.07112255 0.030242806 -0.06056093
0002a0 d6 a4 ad 3d a2 8d 66 3d d3 5e b5 bd bb 6a ac bd
       0.084787056 0.056287415 -0.08855977 -0.08418795
0002b0 2b c5 fc bc d9 f9 ac 3d 15 2a ae 3d d0 d4 38 bd
       -0.030855736 0.08446092 0.0850412 -0.04512483
0002c0 11 17 ef bb b9 50 02 be 30 09 d8 3d e4 5f 0d 3e
       -0.007296451 -0.12726106 0.105486274 0.1380611
0002d0 87 91 61 3b 8b 11 ec bc ff 40 d2 bd 96 06 c5 bd
       0.0034419016 -0.028816959 -0.10266303 -0.09620397
0002e0 a1 f9 f6 3b 07 89 05 3c 79 8c 1d 3d 29 5d 54 bd
       0.0075370823 0.008150346 0.038464043 -0.051846657
0002f0 90 44 f9 bc ec 64 3b bb a8 bb 7b bb 7c cd 01 bd
       -0.030428201 -0.002859409 -0.0038411412 -0.031690106
000300 84 9d 6b bb d9 0a 78 bd 51 94 c4 bb b7 30 9a 3d
       -0.003595204 -0.06055722 -0.005999126 0.07528823
000310 49 d2 66 bd a5 13 36 3d 5c 30 aa 3b 40 86 23 be
       -0.056352887 0.04445233 0.005193753 -0.15969181
000320 15 4c b4 3d 7b 01 c8 3d 57 86 e5 3c 4e 5e b5 bb
       0.08803574 0.097659074 0.02801816 -0.0055349236
000330 de 1d 47 3d 72 fd 00 bd 44 7f bf 3d 0e 54 e0 3d
       0.048612468 -0.031491704 0.09350446 0.10953532
000340 3c fe 0e bb a7 09 a8 bd 35 3e 8d 3d fa de ad 3d
       -0.0021819016 -0.08204966 0.06896631 0.08489795
000350 f2 70 ca bc da 6a 72 3d d8 86 9a bc 43 8a 99 bd
       -0.02471206 0.059183933 -0.018863127 -0.074970745
000360 58 e8 21 bd 98 27 2b 3e de f5 0f 3e 22 05 73 3d
       -0.03952822 0.16714323 0.14058635 0.059331067
000370 9a 0b c8 3d d8 d8 09 3e d7 de 89 3d 28 ad 35 3d
       0.09767838 0.13461626 0.067319565 0.044354588
000380 28 57 a5 3d f8 a1 00 bd 90 a9 c8 3d 14 e3 90 bd
       0.08073264 -0.031404465 0.097979665 -0.07074562
000390 20 26 29 3d c9 24 1e 3d 69 e6 d3 bc 20 84 b3 bd
       0.041296124 0.0386093 -0.025866704 -0.08765435
0003a0 34 19 4f bd ab 01 2d 3d 13 3c db bd 21 a6 9f 3d
       -0.050561145 0.04223792 -0.107048176 0.077953584
0003b0 f6 93 5c bc 71 ea fa 3b 01 f4 0a be ed 30 90 3d
       -0.013463011 0.007657342 -0.13569643 0.07040582
0003c0 14 d9 a5 3c 3f 52 1f 3d 79 36 a7 bd 08 65 8b bd
       0.020245112 0.038896795 -0.08164687 -0.068063796
0003d0 0f 50 9f 3c aa 4b d2 3d 23 9e 28 3d d7 ff 74 3b
       0.019447355 0.10268338 0.041166436 0.0037383938
0003e0 21 cd d7 3d 64 b1 a7 bd d0 b9 22 3e b8 2e 89 3d
       0.10537172 -0.081881315 0.15891194 0.06698364
0003f0 37 77 af bc 1e f0 b7 bc 1d db b0 bd a7 d3 8e bd
       -0.02141915 -0.022453364 -0.086355425 -0.06973963

attention_blocks.0.attention.out_proj.bias f4 [64]
000000 88 88 2c bd bd b6 f5 3d 0e 7f 1d bd 5a 2e 4f 3d
       -0.042122394 0.11997745 -0.038451247 0.050581314
000010 7f 75 c9 bd df 8d b9 bc d8 ed b4 3a c3 b6 ef 3a
       -0.09836864 -0.022650657 0.0013803793 0.001828872
000020 8f e8 07 be 06 6e 94 bd c3 03 b9 3d e5 49 f3 3c
       -0.13272308 -0.07247548 0.090339206 0.029698322
000030 50 4b f1 bd 54 ff e7 bc 83 57 8c 3c a8 fc 1b 3d
       -0.11781943 -0.028319992 0.017131573 0.03808275
000040 f6 30 9b 3d e5 f9 5e 3d 79 cb 4a bd 5c 4b 89 bd
       0.07577698 0.054437537 -0.049510453 -0.06703827
000050 7c 43 95 3d a2 bc a0 bd 71 c7 cf bd 88 cb 24 3e
       0.07288262 -0.07848479 -0.10145462 0.16093266
000060 c7 47 6f bd b8 c3 5f 3d cc 02 17 3d 56 4f 85 3d
       -0.05841806 0.05463001 0.0368679 0.06509273
000070 30 80 b0 3d 10 9e 55 3d 23 be c2 3d ba 7e 6c bd
       0.086182 0.052152693 0.09508922 -0.057738043
000080 0c f2 2a 3d 44 0b ab 3d 31 36 b4 3d 74 82 a0 bd
       0.04173474 0.08351758 0.08799399 -0.07837382
000090 54 b5 c0 bd a0 52 cf bd 8e f8 9c 3d c2 4d 4d ba
       -0.094095856 -0.10123181 0.076645955 -0.0007831716
0000a0 a1 2f 8b bd e0 e1 4f 3c 24 3f 51 3d c4 f5 10 bd
       -0.06796194 0.01268813 0.051085606 -0.03539063
0000b0 86 cf bd bc 96 35 0f be 2e 9f 6e 3d 74 76 22 3d
       -0.023170244 -0.13985285 0.058257274 0.039663747
0000c0 72 35 bb bd 97 1c ac 3d d3 13 b9 bc 97 10 b6 bd
       -0.09141053 0.084038906 -0.02259246 -0.08889883
0000d0 3c ca ae bd 95 cb f7 bd a2 22 9e 3d f1 04 18 3e
       -0.08534667 -0.12099377 0.077214494 0.14845635
0000e0 5a 5f 90 bd 22 3a 94 3d 3b 1f eb bd 6f 41 cd 3d
       -0.07049437 0.072376505 -0.11480566 0.10022246
0000f0 a5 f7 19 3d 14 0d 53 bd 7d 28 01 be b3 ca 97 bb
       0.037589688 -0.051526144 -0.12613101 -0.004632318

attention_blocks.0.filter_layer.sqrt_beta f4 [1, 1, 64]
000000 d6 7c e9 be eb 18 4c bc 2f 5c 7c 39 d3 fc f9 3f
       -0.45603055 -0.012457113 0.00024066934 1.9530281
000010 fd f5 9d 3e 12 1a 82 3e 98 25 c5 3e 1f 1b 55 3e
       0.30851737 0.25410515 0.38505244 0.20811127
000020 2e 2e 43 3a 3f 30 0b bf ba e8 a7 3f bf 52 82 3f
       0.0007445541 -0.5437049 1.3117898 1.0181502
000030 39 41 3e be 97 f2 dc 3f 97 4f ce bf bd 75 28 bf
       -0.18579568 1.7261533 -1.6118039 -0.65804654
000040 30 5d 0c 3d bd 07 74 bf 74 cb 5b be 13 d7 cf bf
       0.034268558 -0.9532431 -0.2146433 -1.623751
000050 36 2b 2e bf b7 6a de 3c d0 cc 8c be 7c 3d 94 3f
       -0.68034685 0.027150495 -0.2750001 1.1581264
000060 c6 5a 03 3f 02 46 65 bf 43 2b 27 40 da 14 cc bd
       0.51310384 -0.8955995 2.6120155 -0.099649146
000070 7f c3 ad 3e b9 b2 72 3f 09 88 50 3f 8a c9 f1 3e
       0.33938214 0.9480396 0.81457573 0.47224075
000080 fc 61 06 3f 2a 1d f9 bd 44 8a ed 3f 1a 87 c0 bf
       0.5249326 -0.12163766 1.855782 -1.504123
000090 22 9e 43 bf 37 50 a0 3e 22 78 8f 3e 9c be 70 3e
       -0.76413167 0.313112 0.28021342 0.23510212
0000a0 a6 29 2e c0 ce 9d a4 bf 8c b0 bb be 48 be 10 c0
       -2.721292 -1.2860658 -0.36658132 -2.2616138
0000b0 11 1c a2 bf c9 38 0e c0 ac 89 9d be e9 b1 8b bf
       -1.2664815 -2.222216 -0.30769098 -1.0913669
0000c0 f9 b9 03 3e 9d 54 9b 3f ee 8a d3 bf 46 8f aa 39
       0.12863912 1.2135197 -1.6526773 0.00032531674
0000d0 08 ae b0 3f 88 dc 35 bf 6a 83 76 3f 28 2b 2e bf
       1.380311 -0.7103963 0.9629427 -0.680346
0000e0 8a 99 3a 3f 6d 15 27 40 e9 52 c2 bf b2 88 ac bb
       0.7289053 2.6106827 -1.5181552 -0.005265319
0000f0 e4 ff 0d 3f 1e 92 04 be a3 d3 02 bf 35 eb 0e bf
       0.55468583 -0.12946364 -0.5110418 -0.5582765

attention_blocks.0.filter_layer.layer_norm.weight f4 [64]
000000 6f 24 83 3f fa e1 80 3f 08 a5 85 3f db 43 73 3f
       1.0245494 1.0068963 1.0440989 0.95025414
000010 e9 fb 88 3f 17 e4 88 3f 84 90 84 3f bd 24 89 3f
       1.0701877 1.0694607 1.0356603 1.0714337
000020 51 50 86 3f c2 48 82 3f d1 fd 7b 3f 70 40 7b 3f
       1.0493261 1.0178454 0.9843417 0.981452
000030 3d c5 87 3f 0c 45 78 3f d6 4b 77 3f d5 a5 84 3f
       1.0607067 0.9698036 0.9660009 1.0363108
000040 8c eb 85 3f a4 3e 75 3f f9 9c 81 3f f6 71 77 3f
       1.0462508 0.95798707 1.0126029 0.96658266
000050 f9 88 75 3f 22 fa 84 3f 79 9c 84 3f 99 7f 81 3f
       0.9591213 1.0388834 1.0360252 1.0117065
000060 52 a5 85 3f 4a 8c 78 3f b8 c9 76 3f e0 7a 85 3f
       1.0441077 0.97089064 0.9640155 1.0428123
000070 8e b0 7c 3f 34 39 7c 3f 87 a1 82 3f 78 bb 81 3f
       0.987069 0.98524785 1.0205544 1.0135336
000080 71 cf 7e 3f 36 4b 84 3f ed d5 74 3f 4a c5 70 3f
       0.9953528 1.0335453 0.95638925 0.9405104
000090 49 43 81 3f c0 22 87 3f 1d eb 80 3f be c3 86 3f
       1.0098659 1.055748 1.0071751 1.0528486
0000a0 00 db 71 3f 42 55 7f 3f cb 56 87 3f 6f 05 7e 3f
       0.9447479 0.9973947 1.0573362 0.9922704
0000b0 1b cd 79 3f aa 66 71 3f 71 c8 83 3f 41 d7 7b 3f
       0.9757859 0.9429728 1.0295545 0.98375326
0000c0 e1 1a 82 3f d8 69 77 3f 8d e7 7a 3f 63 1e 88 3f
       1.0164453 0.9664588 0.9800957 1.0634273
0000d0 f8 59 80 3f 0a 26 81 3f 84 9f 7e 3f cb 47 7e 3f
       1.0027456 1.0089734 0.9946215 0.993283
0000e0 10 b5 7d 3f 04 39 69 3f 9a ed 78 3f c6 91 8b 3f
       0.99104404 0.91102624 0.9723755 1.0903862
0000f0 41 60 7f 3f 7b d4 86 3f 0c c2 85 3f 9e d2 86 3f
       0.99756247 1.0533594 1.0449843 1.0533025

attention_blocks.0.filter_layer.layer_norm.bias f4 [64]
000000 49 88 2c bd 32 b6 f5 3d 98 7e 1d bd d2 2d 4f 3d
       -0.04212216 0.119976416 -0.038450807 0.050580807
000010 df 74 c9 bd f0 8b b9 bc 4c e5 b4 3a e7 ac ef 3a
       -0.098367445 -0.022649735 0.0013801246 0.0018285782
000020 f9 e7 07 be 3e 6d 94 bd ef 02 b9 3d 78 48 f3 3c
       -0.13272084 -0.07247399 0.09033763 0.029697642
000030 98 4a f1 bd 0a fe e7 bc 23 57 8c 3c 7a fb 1b 3d
       -0.11781806 -0.028319377 0.017131394 0.038081624
000040 b2 30 9b 3d 53 f9 5e 3d 32 cb 4a bd 1c 4b 89 bd
       0.07577647 0.054436993 -0.04951019 -0.06703779
000050 43 43 95 3d fb bb a0 bd 89 c6 cf bd b6 ca 24 3e
       0.0728822 -0.078483544 -0.101452895 0.16092953
000060 09 47 6f bd 32 c3 5f 3d 8e 02 17 3d 0f 4f 85 3d
       -0.058417354 0.054629512 0.03686767 0.0650922
000070 c4 7f b0 3d d6 9c 55 3d c4 bd c2 3d 8a 7c 6c bd
       0.08618119 0.052151524 0.09508851 -0.057735957
000080 62 f1 2a 3d 02 0b ab 3d ef 35 b4 3d 3a 82 a0 bd
       0.041734107 0.08351709 0.087993495 -0.07837339
000090 73 b4 c0 bd f6 51 cf bd 29 f8 9c 3d 82 5a 4d ba
       -0.09409418 -0.10123055 0.0766452 -0.0007833616
0000a0 09 2f 8b bd 97 e0 4f 3c d5 3d 51 3d 2d f5 10 bd
       -0.067960806 0.012687824 0.05108436 -0.035390068
0000b0 89 c3 bd bc ee 34 0f be ac 9e 6e 3d 03 76 22 3d
       -0.023164527 -0.13985035 0.05825679 0.039663326
0000c0 ad 34 bb bd 22 1c ac 3d 8d 13 b9 bc 32 10 b6 bd
       -0.091409065 0.084038034 -0.02259233 -0.08889808
0000d0 cb c9 ae bd 3a ca f7 bd 44 22 9e 3d 3e 04 18 3e
       -0.08534583 -0.120991185 0.077213794 0.14845368
0000e0 e4 5e 90 bd cc 39 94 3d da 1e eb bd 85 40 cd 3d
       -0.07049349 0.072375864 -0.11480494 0.10022072
0000f0 80 f7 19 3d 7e 0c 53 bd 1f 28 01 be be ca 97 bb
       0.03758955 -0.051525585 -0.12612961 -0.004632323
