output/ml-100k/GRU4Rec.pt (torch, 649424 bytes, 7 tensors)

item_embeddings.weight f4 [1683, 64]
0	0x3d26cce1	0.04072273
1	0x3c80bc01	0.015714647
2	0xbb5620d7	-0.0032673383
3	0xbcef96f5	-0.029246787
4	0xbd34f718	-0.04418096
5	0x3bd9242c	0.0066266265
6	0x3cc01495	0.023447314
7	0xbaf46ae5	-0.001864758
8	0x3ccd6909	0.025074499
9	0xbc06143e	-0.008183537
10	0x3c37ae0d	0.0112109305
11	0xbb89101f	-0.00418283
12	0xbc8357e2	-0.016033117
13	0xbd0e5c7b	-0.034756165
14	0xbbed8c52	-0.0072493935
15	0xbd4b78f3	-0.049675893
16	0xbc828277	-0.015931351
17	0xbc1919ea	-0.009344557
18	0x3d192b37	0.03739473
19	0x3b10ed72	0.0022114185
20	0xbcea9b82	-0.028638605
21	0x3d0f0005	0.034912128
22	0x3c912e47	0.017722262
23	0x3baf2497	0.005344938
24	0x3a03372f	0.00050054764
25	0xbccae533	-0.024767494
26	0xbbf8b2e3	-0.0075896843
27	0xbb585b74	-0.0033013495
28	0x3d1affdd	0.037841666
29	0x3d0d7df7	0.034543958
30	0xbc88a4cb	-0.016680142
31	0x3bf1fd26	0.007384914
32	0xbc0ffa0e	-0.008787645
33	0xbc61fa44	-0.013792578
34	0x3b841e7d	0.004031955
35	0xbb8f7fbf	-0.004379242
36	0x3baee3e9	0.0053372276
37	0x3d1710f0	0.036881387
38	0xbc2d9790	-0.010595217
39	0xbbd7f97b	-0.0065910197
40	0xba1bd341	-0.000594426
41	0xbcfe40e9	-0.031036811
42	0x3c3ea2cd	0.011635494
43	0xbc9433d7	-0.018091125
44	0x3c5b8c8a	0.013400206
45	0x3c9e7bf0	0.019346207
46	0x3cf34429	0.029695587
47	0xbd0d5e37	-0.03451368
48	0x3ab80939	0.0014040835
49	0x3b14c0e9	0.0022697991
50	0x3d1a7e9a	0.037718393
51	0x3ce691de	0.028145727
52	0x3b576267	0.003286505
53	0xbd1c5a49	-0.03817204
54	0xbb8fa3aa	-0.004383524
55	0xbc768100	-0.015045404
56	0x3b12bfb2	0.0022392091
57	0xbc892294	-0.016740121
58	0xba0a8868	-0.00052846083
59	0xbcacda94	-0.02110032
60	0x3c9233a9	0.0178469
61	0xbc35d864	-0.011098955
62	0xbc4565f0	-0.01204823
63	0xbb1cd420	-0.0023930147
64	0x3d949359	0.07254667
65	0x3d2376f4	0.039908364
66	0x3db7be66	0.089718625
67	0xbd9a049f	-0.07520413
68	0xbd745eeb	-0.059660833
69	0x3d42d801	0.04756928
70	0x3d3bca85	0.045847435
71	0xbdc84ba8	-0.09780055
72	0x3d82b98f	0.06383049
73	0xbdfcbaf5	-0.12340347
74	0xbd99090b	-0.07472428
75	0xbd82d9a0	-0.06389165
76	0xbda040db	-0.0782487
77	0x3d5f4309	0.05450729
78	0xbda4f616	-0.0805475
79	0xbd8daf1e	-0.069181666
80	0xbd9ed733	-0.0775589
81	0x3db18977	0.086687975
82	0x3d79c81b	0.06098185
83	0xbd43bba3	-0.047786366
84	0xbd8d9173	-0.06912508
85	0x3da9477d	0.082655884
86	0x3d75d266	0.060015105
87	0xbd842255	-0.06451861
88	0xbd7e7acb	-0.062128823
89	0xbd25edc8	-0.04050997
90	0xbd8ee2ca	-0.0697685
91	0xbd64e36b	-0.055880945
92	0x3d2f24cd	0.042759705
93	0xbd3cab90	-0.046062052
94	0xbd9e8fd5	-0.077422775
95	0xbd9b4b26	-0.07582693
96	0xbd5cd6aa	-0.053915657
97	0xbd84546d	-0.064614154
98	0xbd78b935	-0.060723502
99	0xbda13674	-0.07871714
100	0x3d72879c	0.05921136
101	0x3d9770ba	0.07394548
102	0xbd4559e4	-0.04818143
103	0xbda1e49c	-0.07904932
104	0xbd6b7cb7	-0.057491984
105	0xbd2adda3	-0.041715275
106	0xbda0b56b	-0.07847103
107	0xbcfa0f57	-0.030524893
108	0xbd7ab5f2	-0.061208673
109	0x3d9d32a0	0.076756716
110	0xbcf19c45	-0.02949346
111	0xbd8e5ca1	-0.06951261
112	0x3d9ab637	0.07554286
113	0x3dbfb3af	0.09360444
114	0x3d63d32a	0.055621304
115	0x3da3dd24	0.080011636
116	0x3d998121	0.074953325
117	0xbd861ab3	-0.06548061
118	0xbdaa23ae	-0.083075866
119	0xbdd1ec46	-0.10250144
120	0xbd019d71	-0.03164429
121	0xbda3286a	-0.07966693
122	0xbd17d8cf	-0.037072
123	0xbd6f9dcc	-0.058500096
124	0xbd7590c4	-0.059952512
125	0xbd9d3981	-0.076769836
126	0xbd9a34b7	-0.07529586
127	0xbda4f183	-0.08053877
128	0x3d566dae	0.052350692
129	0xbacc449a	-0.001558441
130	0x3d4f45a5	0.050603528
131	0xbc5e7910	-0.013578668
132	0x3c444af1	0.011980758
133	0x3d19f951	0.037591282
134	0x3cf0e40d	0.029405618
135	0xbd5140a3	-0.051087033
136	0xbd21700e	-0.039413504
137	0xbcd09ec2	-0.025466327
138	0xbce0e9b3	-0.027455186
139	0xbcf01263	-0.029305642
140	0xbd4708d3	-0.0485924
141	0x3d5d1166	0.05397167
142	0xbbd464eb	-0.006481757
143	0x3b1b26d5	0.0023674269
144	0xbadf26e3	-0.0017025139
145	0x3d90ea37	0.07075923
146	0x3c91a044	0.017776616
147	0xbcdc63c9	-0.02690305
148	0xbd140ccc	-0.036145017
149	0x3cdf09c6	0.02722634
150	0x3d2bff79	0.041991685
151	0xbd25648e	-0.0403791
152	0xbd1a0bc2	-0.03760887
153	0xbd505065	-0.05085792
154	0xbcc2d34b	-0.023782393
155	0xbd256a71	-0.040384714
156	0x3da61a11	0.081104405
157	0xb9b6019a	-0.00034714938
158	0xbcf81492	-0.030283246
159	0xbc8bfc26	-0.017088007
160	0xbceb804a	-0.028747696
161	0xbc31766a	-0.010831455
162	0xbd1b02d8	-0.03784451
163	0xbd942a12	-0.07234587
164	0x3d17003d	0.03686546
165	0x3cd25f1c	0.025680117
166	0xbc9a7361	-0.018853845
167	0xbd82fac2	-0.063954845
168	0xbd3cbecc	-0.046080396
169	0x3c31d77e	0.0108546
170	0xbc9986b1	-0.018740984
171	0x3ce702a5	0.028199503
172	0x3ccd0a7b	0.025029412
173	0x3d8bdca2	0.06829192
174	0x3d7a224a	0.061067857
175	0xbc8a53aa	-0.016885597
176	0x3d355793	0.04427297
177	0x3d388adb	0.045054298
178	0x3d7c1ce8	0.061551005
179	0x3d2b51b2	0.041825958
180	0xbd341a31	-0.04397029
181	0xbc9cd633	-0.019145107
182	0xbc6828f7	-0.014169923
183	0xbd7fa0a3	-0.062409054
184	0xbd832278	-0.06403059
185	0xbd16a58b	-0.036778968
186	0xbca02608	-0.019549385
187	0xbcc3944a	-0.02387442
188	0x3d1c8518	0.038212866
189	0xbd3a83ce	-0.045535855
190	0xbca873ba	-0.020562995
191	0xbcd54900	-0.026035786
192	0x3be0a5f6	0.0068557216
193	0x3c3799c9	0.011206099
194	0xbbafaba9	-0.0053610397
195	0x3d11e4af	0.03561848
196	0x3aa865c9	0.0012847717
197	0xbbcbd75b	-0.0062207407
198	0x3c093e02	0.0083766
199	0x3c845e21	0.016158165
200	0x3b30a719	0.0026955067
201	0xbd16bd8e	-0.036801867
202	0xbc23642f	-0.009972616
203	0xbb931c67	-0.00448947
204	0x3c809d19	0.01569991
205	0xbce135c3	-0.027491456
206	0xbb590674	-0.0033115419
207	0xbd09f822	-0.033683904
208	0xbcc5c3b7	-0.024141176
209	0x3d6d6b8c	0.057963893
210	0x3d0189db	0.03162561
211	0xbc89bad0	-0.016812712
212	0xbc8bc222	-0.017060343
213	0x3c221fcf	0.009895279
214	0xbc08e6d8	-0.008355819
215	0x3d042901	0.032265667
216	0xbd46726c	-0.048448965
217	0xbd2d4a27	-0.042307045
218	0xbb87c894	-0.004143784
219	0xbd081bd2	-0.033229657
220	0x3d888971	0.0666684
221	0xbb417a6f	-0.002952244
222	0x3b907075	0.004407937
223	0xbbd7c1c1	-0.0065843766
224	0xbc84d48a	-0.016214628
225	0xbc8e454a	-0.017367024
226	0xbce1f641	-0.027583243
227	0xbced23ba	-0.0289477
228	0xbc845171	-0.016152116
229	0xbcc6f623	-0.024287289
230	0xbd65f95d	-0.056146014
231	0xbb1a81ef	-0.0023575982
232	0x3ce34e49	0.02774729
233	0xbb8eda8e	-0.00435955
234	0x3be3099e	0.0069286367
235	0xbd05c47d	-0.03265809
236	0xbc083cdb	-0.00831529
237	0xbc2cc5d6	-0.010545215
238	0x3c1e3cc8	0.009658046
239	0xbd021f00	-0.031767845
240	0xbcd07d87	-0.025450481
241	0xb9b15e6f	-0.0003383043
242	0x3d07ba30	0.033136547
243	0xbc9bb54e	-0.019007351
244	0xbc8e6836	-0.017383676
245	0xbc35ef28	-0.011104383
246	0xbc0bf944	-0.008543316
247	0xbc6c84d9	-0.01443597
248	0x3d1d0ee1	0.038344268
249	0x3c8ace9a	0.016944218
250	0x3c842d15	0.016134778
251	0xbce3eb00	-0.027822018
252	0x3c24f80d	0.010068906
253	0xbd0801b7	-0.03320476
254	0xbd04303f	-0.032272574
255	0xbc41d717	-0.011831067

gru_layers.weight_ih_l0 f4 [192, 64]
0	0x3e0e218d	0.13879986
1	0xbdc5c0f2	-0.09655942
2	0x3df8e8e5	0.12153796
3	0xbe41c04f	-0.18921016
4	0xbd7a0120	-0.06103623
5	0x3e216dfd	0.15764613
6	0xbc67191e	-0.0141051095
7	0xbd931271	-0.07181252
8	0xbd5add68	-0.053433806
9	0xbd88d51c	-0.066812724
10	0xbd9adf2d	-0.07562099
11	0xbe09b78a	-0.13448921
12	0xbdfb5a95	-0.122731365
13	0x3d811dea	0.06304534
14	0xbe21c476	-0.157976
15	0xbd0fffa3	-0.035155904
16	0xbe11cc28	-0.14238036
17	0xbde06ae7	-0.1095789
18	0x3e129d97	0.14317928
19	0x3dbf0b9f	0.093283884
20	0xbe19756a	-0.14986196
21	0xbc4d661f	-0.012536555
22	0x3e31fffe	0.1738281
23	0x3df79693	0.12089267
24	0xbddf192e	-0.108934745
25	0x3d3cd8dc	0.04610525
26	0xbd90a03c	-0.07061812
27	0xbe0d075b	-0.13772337
28	0x3bb62035	0.0055580386
29	0xbd84e72f	-0.06489407
30	0x3cb20864	0.021732517
31	0x3add1b48	0.0016869092
32	0xbe0d4371	-0.13795258
33	0x3dc1ef90	0.09469521
34	0xbe29d896	-0.16586527
35	0xbe288efb	-0.16460793
36	0xbe0361da	-0.12830296
37	0xbd3e8ff1	-0.046523992
38	0xbccdb597	-0.025111003
39	0xbd8b9251	-0.06815017
40	0x3dca5ec1	0.09881354
41	0xbd91555d	-0.0709636
42	0xbe226027	-0.15856992
43	0xbe0a4b59	-0.13505305
44	0xbde6a018	-0.11261004
45	0xbd7f1d26	-0.062283657
46	0xbe11e45a	-0.14247265
47	0xbe4396cc	-0.19100493
48	0x3cb2617d	0.021775002
49	0x3e1e033c	0.15430921
50	0x3e2f4b1e	0.17118499
51	0x3d3c35a1	0.045949582
52	0x3d01afbf	0.031661745
53	0xbd1bcfcd	-0.03803997
54	0xbe102c88	-0.14079487
55	0xbde4ee0d	-0.11178217
56	0xbe08b6a9	-0.1335093
57	0xbbce0ec2	-0.0062883804
58	0xbdd1545b	-0.10221168
59	0xbe1b6fa9	-0.15179314
60	0xbd8264e3	-0.06366899
61	0xbe15db47	-0.14634429
62	0x3cb6f244	0.022332318
63	0xbdc5bc21	-0.09655023
64	0xbdd7241f	-0.105049364
65	0x3e40566a	0.18782964
66	0xbc016c43	-0.007899347
67	0xbe3610f6	-0.17779908
68	0xbc604663	-0.0136886565
69	0x3dd43625	0.1036189
70	0xbd74c44d	-0.05975752
71	0xbc474baa	-0.012164036
72	0x3d8ff094	0.070283085
73	0x3d954413	0.07288375
74	0xbe0261d2	-0.12732628
75	0xbdf5904b	-0.11990412
76	0xbe40657e	-0.18788716
77	0xbd84e535	-0.0648903
78	0xbe3a1ae6	-0.18174323
79	0x3d19ae9e	0.037520044
80	0xbe287eae	-0.16454574
81	0x3dfd8f30	0.123808265
82	0xbd8a1ffa	-0.0674438
83	0xbe4bc035	-0.1989754
84	0xbd38afca	-0.04508952
85	0x3df15636	0.117840216
86	0x3ddc6a93	0.10762515
87	0xbd41f488	-0.047352344
88	0x3d52ed72	0.051495977
89	0x3d7530ac	0.05986087
90	0xbd8bdc31	-0.068291076
91	0x3daf7cb7	0.08568709
92	0xbe03d1e1	-0.12873031
93	0x3ceb0e22	0.028693262
94	0x3d046207	0.03232005
95	0x3cc3906b	0.023872575
96	0xbd3f3565	-0.04668178
97	0x3d84af8d	0.06478796
98	0xbcf5d48e	-0.03000858
99	0x3b860d64	0.0040909518
100	0x3d0dbc4d	0.034603406
101	0xbc8ae42d	-0.016954506
102	0xbdc638ab	-0.09678777
103	0x3de70d5b	0.11281844
104	0xbe3a62f2	-0.18201807
105	0x3d87dd8b	0.06634053
106	0xbdc79dbc	-0.09746882
107	0xbe40be8b	-0.18822686
108	0x3d5772fa	0.052599885
109	0x3e039d31	0.12852933
110	0xbd93ef63	-0.07223394
111	0xbe129fec	-0.14318818
112	0x3d02f139	0.03196833
113	0x3e16a25c	0.14710373
114	0x3d48127c	0.048845753
115	0xbd290398	-0.041263193
116	0xbda2e64f	-0.07954084
117	0x3d1f7300	0.038928032
118	0xbe0f5df1	-0.1400068
119	0xbb93d6e5	-0.0045117014
120	0xbdac3803	-0.08409121
121	0xbdd36bbe	-0.103232846
122	0xbc98af26	-0.018638205
123	0xbe18779e	-0.1488938
124	0xbe02c979	-0.12772168
125	0xbe369fb1	-0.17834355
126	0xbd4a986d	-0.04946177
127	0xbe035634	-0.12825853
128	0xbdb7a633	-0.08967247
129	0x3d709f7c	0.058745846
130	0xbb79a593	-0.0038093075
131	0xbd8a8918	-0.0676443
132	0x3dafa022	0.08575465
133	0x3d863e79	0.065548845
134	0x3df7e0a4	0.12103394
135	0xbceeb1b4	-0.02913747
136	0x3d3f5125	0.046708245
137	0x3cdf0565	0.027224252
138	0x3c009e5f	0.007850259
139	0xbe0b9f92	-0.1363509
140	0x3db1c383	0.08679869
141	0x3db5137a	0.088416055
142	0xbe37d66f	-0.17952894
143	0xbbd42499	-0.0064740893
144	0xbe1be7d6	-0.15225157
145	0xbdea0cd9	-0.11428232
146	0xbdcc06ee	-0.09962259
147	0x3dd11b38	0.1021027
148	0x3c8a9cdc	0.0169205
149	0x3d5778e8	0.05260554
150	0x3e0d2baa	0.13786188
151	0xbba88695	-0.0051429966
152	0xbe24e7c3	-0.16104035
153	0xbe00e483	-0.1258717
154	0xbe0c7e0d	-0.1371996
155	0xbcac22fd	-0.021012777
156	0xbddff522	-0.10935427
157	0xbe048cda	-0.12944356
158	0x3db1db8c	0.08684453
159	0xbe3b56d8	-0.18294847
160	0xbd7b990f	-0.061425265
161	0xbda0ef45	-0.07858137
162	0xbe316b20	-0.17326021
163	0xbe1be777	-0.15225016
164	0xbc964484	-0.018343218
165	0x3d9bbb44	0.076040775
166	0xbd836fc0	-0.06417799
167	0x3cf6b299	0.030114459
168	0x3dcda720	0.10041642
169	0xbdb9febf	-0.09081792
170	0x3de35ff6	0.111022875
171	0x3d994957	0.074846916
172	0x3d83e50d	0.06440172
173	0xbd3877b6	-0.04503604
174	0x3d8541e5	0.06506709
175	0x3d21c6aa	0.0394961
176	0x3d35d6d5	0.044394333
177	0xbcd2a362	-0.025712673
178	0xbdbac1c5	-0.0911899
179	0x3cde35b5	0.027125219
180	0x3e2649b9	0.1623906
181	0x3d9badbe	0.07601498
182	0xbc892a47	-0.016743792
183	0x3df39668	0.11893922
184	0xbd6fbff8	-0.058532685
185	0xbcb1cc5a	-0.021703888
186	0x3d821e8a	0.06353481
187	0x3ddb07c8	0.106948435
188	0xbe31f5b6	-0.17378888
189	0xbe49355f	-0.19649266
190	0x3cc1a6b0	0.023639053
191	0x3db8ce6b	0.09023746
192	0x3c516493	0.012780326
193	0xbd07de77	-0.033171143
194	0xbdc91a5e	-0.09819482
195	0xbcbb8c83	-0.02289415
196	0x3cb3fe2e	0.021971788
197	0xbd8ed5e7	-0.069743924
198	0x3e024678	0.12722194
199	0xbdb22c3a	-0.08699842
200	0xbd4990c9	-0.049210344
201	0xbdffb11b	-0.12484952
202	0xbd535294	-0.051592425
203	0xbdf0140e	-0.11722575
204	0xbdff8a89	-0.12477595
205	0xbde0e775	-0.10981647
206	0x3db49a77	0.08818524
207	0xbde0e9f5	-0.10982124
208	0xbe126f33	-0.14300232
209	0x3d811eff	0.0630474
210	0x3c9e48a6	0.01932175
211	0xbe1b2197	-0.15149532
212	0xbe30d488	-0.17268574
213	0xbc55d90e	-0.013052238
214	0xbc4686c6	-0.012117093
215	0x3d57d266	0.052690886
216	0x3a96f7e1	0.0011517965
217	0xbde4af7e	-0.11166285
218	0xbd544d05	-0.051831264
219	0x3dea9ae8	0.11455327
220	0xbd999848	-0.074997485
221	0xbd1be9ed	-0.038064886
222	0xbe2dae8c	-0.16961116
223	0xbc0872aa	-0.008328119
224	0xbddd50a1	-0.10806394
225	0xbe308d52	-0.1724141
226	0x3d854985	0.06508163
227	0xbd27d4f0	-0.040974557
228	0x3ceb3787	0.028713001
229	0xbd487b46	-0.048945688
230	0x3d98bc8e	0.07457839
231	0xbd6fdaf7	-0.05855843
232	0x3c0815a1	0.008305938
233	0x3d828c16	0.063743755
234	0x3d8d3a6b	0.06895908
235	0x3da6ea62	0.08150174
236	0xbd10ec11	-0.03538138
237	0x3e01542a	0.12629762
238	0x3e171965	0.14755781
239	0x3c143d89	0.009047874
240	0x3cafdd75	0.021467904
241	0xbde70194	-0.11279598
242	0x3e28e624	0.16494042
243	0x3df42ceb	0.1192263
244	0x3d87b7b5	0.06626836
245	0xbdcdaeec	-0.10043129
246	0xbc0ef249	-0.0087247575
247	0x3dd805aa	0.10547955
248	0xbe09a8ae	-0.13443252
249	0x3cdd6327	0.027024819
250	0x3d3429f4	0.043985322
251	0xbd94f3c6	-0.072730586
252	0xbe503a66	-0.20334777
253	0x3dc913f9	0.098182626
254	0x3cd89c89	0.02644183
255	0xbb717003	-0.0036840446

gru_layers.weight_hh_l0 f4 [192, 64]
0	0xbe14822e	-0.14502785
1	0xbde2dce1	-0.110772856
2	0xbdde160c	-0.10844049
3	0x3c824b5c	0.015905075
4	0x3d72bda4	0.059262887
5	0x3df1c8f3	0.11805906
6	0xbd5eded8	-0.05441174
7	0x3d10427e	0.035219662
8	0xbce93645	-0.02846826
9	0xbc564eff	-0.013080358
10	0xbd4ed968	-0.050500304
11	0x3c9585b1	0.018252226
12	0xbd2220af	-0.03958195
13	0x3da5183d	0.08061264
14	0xbe1c2cd5	-0.15251477
15	0xbe13343d	-0.14375396
16	0xbe1fcc5a	-0.15605298
17	0xbddaf556	-0.10691325
18	0x3b92ecba	0.0044837864
19	0xbd4ec84d	-0.05048399
20	0xbdab855e	-0.08375047
21	0x3d1406d8	0.03613934
22	0xbd75f9eb	-0.060052793
23	0x3cd22d47	0.025656356
24	0xbc8bebdc	-0.01708024
25	0xbd787a30	-0.060663402
26	0x3da92f88	0.08261019
27	0xbc901ff3	-0.01759336
28	0xbd902556	-0.07038371
29	0x3d030190	0.031983912
30	0xbd0f7395	-0.035022337
31	0x3dfa45af	0.12220322
32	0x3e3cadf7	0.18425737
33	0x3b81158c	0.003939336
34	0xbdf00bed	-0.11721025
35	0xbccbb45d	-0.024866277
36	0xbdceb0da	-0.100923255
37	0x3e147199	0.14496459
38	0xbe3994c4	-0.18123156
39	0x3d51464a	0.051092423
40	0xbdf9981c	-0.12187216
41	0xbd111e8b	-0.03542952
42	0x3e251243	0.16120248
43	0xbd0e78b4	-0.03478308
44	0x3d7523df	0.059848662
45	0xbd041dcc	-0.03225498
46	0xbe06f41c	-0.13179058
47	0x3da3b38b	0.079932295
48	0xbba92491	-0.0051618298
49	0x3e245cee	0.16051075
50	0x3d56727a	0.052355267
51	0x3ddd47ae	0.108046874
52	0xbe159924	-0.146092
53	0xbdc63390	-0.096778035
54	0xbcc71b98	-0.02430515
55	0xbd082ec8	-0.03324774
56	0x3e3142b3	0.173106
57	0x3da81bea	0.08208449
58	0xbc8fe61c	-0.01756578
59	0xbba14238	-0.004921224
60	0x3dafdc7a	0.085869744
61	0x3d66f690	0.056387484
62	0xbd7700c6	-0.060303472
63	0x3b7c4982	0.0038495963
64	0x3dad6f00	0.08468437
65	0xbd9bf6cc	-0.07615432
66	0x3d1bb018	0.038009733
67	0xbda8ba18	-0.082386196
68	0x3e197b41	0.14988424
69	0xbe1c9d0a	-0.1529428
70	0x3c973b1f	0.018460808
71	0x3e11bd8b	0.14232461
72	0xbc8c670b	-0.017138978
73	0x3deb5f3f	0.11492776
74	0x3d627c23	0.055294167
75	0x3ddc57c5	0.10758928
76	0x3a98c598	0.0011655567
77	0x3c231345	0.009953325
78	0xbdfeb0e6	-0.124360844
79	0xbdcea62a	-0.10090287
80	0x3b8f6e72	0.00437718
81	0x3e25b757	0.1618322
82	0xbd61534e	-0.055011086
83	0x3df50432	0.11963691
84	0xbcf5e729	-0.030017452
85	0x3d8b1610	0.067913175
86	0xbdd895f8	-0.10575479
87	0x3da37260	0.079808
88	0x3e133a65	0.14377744
89	0x3db63273	0.08896341
90	0xbda98100	-0.08276558
91	0xbd8057ba	-0.062667325
92	0xbcd5ce2d	-0.026099289
93	0xbdc6d8dc	-0.097093314
94	0xbb0548c2	-0.0020337556
95	0x3e16614c	0.14685553
96	0x3df1a27a	0.11798568
97	0xbda94f58	-0.08267087
98	0x3dfb9c1b	0.12285634
99	0xbd84d67a	-0.06486221
100	0x3e269b11	0.1627009
101	0xbdae0692	-0.08497347
102	0xbe1c20c8	-0.1524688
103	0x3e443288	0.19159901
104	0xbd91c15f	-0.07116961
105	0xbdaf0282	-0.085454
106	0xbdda5189	-0.10660083
107	0xbd8ac126	-0.067751214
108	0x3c27dfcd	0.010246229
109	0xbce2c684	-0.02768255
110	0x3da8408e	0.08215438
111	0x3e1c4b3f	0.15263079
112	0xbd4216ce	-0.04738503
113	0xbdc35b08	-0.09538847
114	0x3c0abcc2	0.008467855
115	0xbc6dbfec	-0.01451109
116	0x3cee54dc	0.029093198
117	0x3de84c6e	0.11342703
118	0x3d017d74	0.031613782
119	0x3dc61368	0.0967167
120	0xbdcb42cb	-0.09924849
121	0xbde5d863	-0.11222913
122	0x3db45d81	0.08806897
123	0xbd0c7d8c	-0.03429942
124	0xbd90d178	-0.07071203
125	0x3da10abb	0.07863375
126	0xbdcabcc3	-0.09899285
127	0xbcdd334c	-0.027002
128	0xbe3a6063	-0.18200831
129	0x3cc65a30	0.024212927
130	0xbe480882	-0.19534495
131	0x3d4685c4	0.048467413
132	0xbcb3e125	-0.021957943
133	0xbd48506c	-0.04890482
134	0x3e0f4001	0.1398926
135	0xbd58a5d3	-0.052892517
136	0x3dc590d7	0.09646767
137	0x3e225df9	0.1585616
138	0x3dd4b375	0.10385791
139	0xbde7c39d	-0.11316607
140	0x3c3e76d4	0.0116250105
141	0xbc18489a	-0.009294653
142	0xbe38426b	-0.17994086
143	0xbe23dc87	-0.16002093
144	0x3d84d8d3	0.064866684
145	0xbbec7b85	-0.007216873
146	0x3e1067ee	0.14102146
147	0x3de55139	0.111971326
148	0xbd94d72f	-0.072676055
149	0x3dd06195	0.10174862
150	0xbd8bbe05	-0.06823353
151	0xbca02723	-0.019549912
152	0x3dc26e84	0.094937354
153	0xbddba272	-0.10724343
154	0x3e2d493f	0.16922472
155	0xbd9a6ae4	-0.07539919
156	0x3e20f96c	0.15720147
157	0xbdb92eaf	-0.09042107
158	0xbc915775	-0.017741898
159	0x3c879555	0.0165507
160	0x3e2f8340	0.17139912
161	0x3cc8fcc4	0.02453459
162	0x3e379e35	0.17931445
163	0x3e3a7af7	0.1821097
164	0xbdc928e9	-0.09822256
165	0x3dec5b31	0.11540831
166	0xbcd150ab	-0.02555116
167	0x3ddb0e49	0.10696084
168	0x3cca38c0	0.024685264
169	0x3d9af6c3	0.07566597
170	0xbd53307a	-0.051559903
171	0xbd79fb08	-0.061030418
172	0x3d62ae99	0.05534229
173	0xbcd9cca2	-0.026586834
174	0xbdc29834	-0.09501687
175	0x3ddaee59	0.106899925
176	0xbdcb8bed	-0.09938798
177	0xbbab9cd6	-0.005237202
178	0x3bad84b6	0.0052953614
179	0x3d19b885	0.037529487
180	0xbe35ef1f	-0.17766999
181	0x3dd59e98	0.1043064
182	0xbddcfeac	-0.10790762
183	0x3da070a4	0.078339845
184	0xbd93b315	-0.072118916
185	0x3d6a0629	0.05713478
186	0xbbab5917	-0.005229126
187	0xbcbfee5e	-0.023429092
188	0x3acf353e	0.0015808714
189	0x3b7f6a0e	0.0038973126
190	0xbd4ab4e5	-0.04948892
191	0xbcde72c0	-0.027154326
192	0xbe07487f	-0.13211249
193	0xbce14962	-0.027500812
194	0xbd48d27c	-0.04902886
195	0xbd9ee5f3	-0.07758703
196	0x3cb702a4	0.022340126
197	0xbdd4ad9b	-0.10384675
198	0x3e128c6e	0.14311382
199	0x3d8b6ab0	0.068074584
200	0xbe008165	-0.1254936
201	0x3e305a01	0.17221834
202	0xbc15529f	-0.009113937
203	0xbc0d36d8	-0.008619033
204	0xbd5207dc	-0.051277027
205	0x3d3bc840	0.04584527
206	0xbe0883c4	-0.13331515
207	0xbd5beb50	-0.05369121
208	0xbe2d9ad3	-0.16953592
209	0x3d8ae640	0.06782198
210	0x3ba57bee	0.005050174
211	0x3d8d5ac3	0.06902077
212	0x3d943597	0.07236784
213	0xbda1ce71	-0.07900704
214	0xbe01fb63	-0.12693553
215	0xbdf7b5f9	-0.120952554
216	0xbdd96f7d	-0.10616968
217	0xbe3b0eed	-0.18267412
218	0x3de9f036	0.1142277
219	0xbe38684c	-0.18008536
220	0xbd301a21	-0.04299367
221	0xbd891f41	-0.06695414
222	0x3e2d77f9	0.16940297
223	0xbd9bfb6a	-0.07616313
224	0x3d996ca6	0.07491426
225	0xbd197e98	-0.037474245
226	0xbdc42bf0	-0.09578693
227	0x3d9c1752	0.076216355
228	0x3cdc8e3f	0.026923297
229	0x3b870bb1	0.004121267
230	0xbd3b4f1f	-0.045729753
231	0x3c712cf3	0.014720189
232	0x3d118fc1	0.035537485
233	0x3b722df8	0.003695367
234	0x3e084bdc	0.13310188
235	0x3e136afe	0.14396283
236	0x3e11dc63	0.14244227
237	0x3da78b64	0.081808835
238	0xbe20b1a7	-0.15692769
239	0x3c70ca3a	0.014696652
240	0x3e0180f9	0.12646855
241	0xbc86c8d4	-0.016453184
242	0xbb817a7f	-0.0039513703
243	0x3cad10bb	0.021126142
244	0xbdc015ef	-0.093791835
245	0xbafb0e56	-0.0019154053
246	0xbdb32ada	-0.08748408
247	0x3d90ec04	0.070762664
248	0xbc9804a3	-0.018556898
249	0xbd1c78a7	-0.038201
250	0x3ccb93ee	0.024850812
251	0x3d5551b1	0.05207986
252	0xbdd3ad3e	-0.10335778
253	0xbd8ad2d0	-0.067784905
254	0xbd40e330	-0.047091663
255	0x3d8574bd	0.06516407

gru_layers.weight_ih_l1 f4 [192, 64]
0	0xbdab5605	-0.08366016
1	0xbd3a980c	-0.04555516
2	0xbdd0c975	-0.10194675
3	0xbd305913	-0.043053698
4	0x3d02d234	0.031938747
5	0xbcd1d253	-0.025612986
6	0xbc6ff204	-0.014645103
7	0x3d7e7c52	0.06213028
8	0xbd26005f	-0.040527698
9	0x3e16c162	0.14722207
10	0xbe1177a3	-0.14205794
11	0x3e0e8dad	0.13921233
12	0xbe1059c2	-0.1409674
13	0xbb9d73a5	-0.0048050457
14	0xbc8e8b73	-0.017400479
15	0xbc914452	-0.017732773
16	0xbe079814	-0.13241607
17	0x3e002e82	0.12517741
18	0x3d93ff68	0.07226449
19	0xbd261bab	-0.04055373
20	0x3d0c8d02	0.034314163
21	0x3d39194e	0.045190148
22	0x3d16a5b7	0.03677913
23	0xbcb37b18	-0.021909282
24	0x3e06b2c5	0.13154133
25	0xbdcfe3a8	-0.10150844
26	0x3e056fdf	0.13030957
27	0xbdad531b	-0.08463117
28	0x3e03527a	0.12824431
29	0xbd5229e4	-0.05130948
30	0x3cfc2dcf	0.030783562
31	0xbd04d708	-0.032431632
32	0xbd7eea41	-0.06223512
33	0xbdea1c05	-0.114311256
34	0x3d429a71	0.047510568
35	0x3dcf3eb3	0.10119381
36	0xbd6256bf	-0.05525851
37	0xbadccfba	-0.0016846575
38	0x3db689f4	0.08913031
39	0x3db70b91	0.08937753
40	0xbe04b832	-0.1296089
41	0xbde2889f	-0.11061215
42	0x3dcbc10d	0.09948931
43	0x3c37ea15	0.011225243
44	0x3e16867c	0.14699739
45	0xbe0256a3	-0.12728362
46	0xbd2d95e3	-0.04237927
47	0xbd4317ee	-0.047630243
48	0x3e207294	0.15668708
49	0x3d0b2cb1	0.033978168
50	0xbdd5403b	-0.104126416
51	0xbcd079fc	-0.025448792
52	0x3dacb519	0.08432979
53	0xbd55f345	-0.052233953
54	0xbe0ec457	-0.13942085
55	0xbcd03260	-0.025414646
56	0x3d0c3f0b	0.03423981
57	0xbd3a4d8a	-0.045484103
58	0x3d9d96a1	0.07694746
59	0x3a28e6bb	0.0006443073
60	0x3dbda825	0.09260587
61	0x3d5b8056	0.053589188
62	0xbd6fbb64	-0.05852832
63	0xbcb66200	-0.022263527
64	0xbb5b772a	-0.0033487775
65	0xbd3673f7	-0.044544186
66	0xbde8bb16	-0.11363809
67	0xbd13ab9d	-0.036052335
68	0xbd9c57fc	-0.07633969
69	0xbbf8396e	-0.0075752055
70	0x3df8bba0	0.12145162
71	0xbcc2bb1f	-0.023770867
72	0x3c24c093	0.010055679
73	0xbd8017f3	-0.06254568
74	0xbd7552c5	-0.05989339
75	0x3dbcd98c	0.09221181
76	0xbd0fc5d9	-0.03510079
77	0xbda29d37	-0.079401426
78	0x3cfaf894	0.03063611
79	0xbe2bd3d4	-0.16780025
80	0x3c2ad2ef	0.010426267
81	0x3dbc808d	0.092042066
82	0x3dcaf431	0.09909857
83	0xbd98ac11	-0.07454694
84	0x3d16bf1b	0.036803346
85	0xbab831d0	-0.0014052931
86	0xbe1475c4	-0.14498049
87	0xbd650640	-0.055914164
88	0xbd0ad322	-0.03389276
89	0xbc746d27	-0.014918602
90	0xbd3b8529	-0.04578129
91	0xbd624d7d	-0.05524968
92	0x3da1e456	0.0790488
93	0x3e032866	0.1280838
94	0xbcf0cc10	-0.02939418
95	0x3dc40267	0.09570771
96	0x3d8dd39f	0.06925129
97	0xbd9df3d6	-0.07712524
98	0x3da08bc0	0.07839155
99	0x3ded1e02	0.11577989
100	0xbd4cd80e	-0.050010733
101	0x3dbb0941	0.091326244
102	0xbde9fb48	-0.11424881
103	0x3da0ce44	0.07851842
104	0x3d06a1d2	0.032869168
105	0x3d8404bb	0.06446215
106	0xbc81584b	-0.015789172
107	0xbd453ad3	-0.048151802
108	0x3e0b5c44	0.13609415
109	0x3d473bc8	0.048640996
110	0x3a9f633f	0.0012160315
111	0x3cb93d44	0.022612222
112	0x3d61631d	0.055026162
113	0xbd9611d3	-0.073276184
114	0x3d223736	0.039603435
115	0xbd2c12e7	-0.042010214
116	0xbe0d1e3d	-0.13781066
117	0x3dd401e5	0.10351924
118	0x3cc94af2	0.02457187
119	0x3d6d1a6d	0.05788653
120	0x3e204242	0.15650275
121	0x3d843b9a	0.064566806
122	0x3d6ff2c3	0.058581125
123	0x3d39c516	0.04535397
124	0xbd59ccd5	-0.05317386
125	0xbd958825	-0.07301358
126	0xbd5d109d	-0.05397092
127	0xbbf1a6e8	-0.007374633
128	0xbd8dd550	-0.06925452
129	0xbda4a6e0	-0.080396414
130	0x3d15deee	0.036589555
131	0x3cd939e6	0.026516866
132	0x3d68dd6c	0.05685179
133	0x3dc180a1	0.09448362
134	0xbd8b00cb	-0.067872606
135	0xbda9b8ce	-0.08287202
136	0xbc501c3b	-0.012702043
137	0x3deb399c	0.114855975
138	0xbe0d984a	-0.13827625
139	0xbd3166c7	-0.043310907
140	0xbe0d3cb7	-0.13792692
141	0xbdcfa8a6	-0.10139589
142	0xbd139d19	-0.036038492
143	0xbd9c2e59	-0.076260276
144	0x3d7569bf	0.0599153
145	0xbda597fa	-0.08085628
146	0x3c498170	0.012298927
147	0x3d0b8eb4	0.03407164
148	0xbe02e1a4	-0.12781388
149	0x3c18c9b3	0.009325433
150	0x3dadea0b	0.08491906
151	0xbd651c0e	-0.05593496
152	0xbdc53d1d	-0.09630797
153	0xbd008778	-0.031379193
154	0x3dcdb054	0.100433975
155	0x3bbeb9e5	0.0058205
156	0x3c441865	0.011968707
157	0xba16fb57	-0.00057594985
158	0xbd1331e8	-0.035936266
159	0x3d637ddf	0.055539962
160	0xbdd581ec	-0.10425171
161	0xbd479969	-0.048730288
162	0xbb40e978	-0.0029436033
163	0x3d74b88d	0.059746314
164	0xbdaa0bc5	-0.08303026
165	0xbcc51a3d	-0.024060363
166	0xbd32fab8	-0.043696135
167	0xbd1b116c	-0.03785841
168	0x3d273d5f	0.040830012
169	0x3dcb50d1	0.09927524
170	0xbd686fd8	-0.056747288
171	0xbd2cc655	-0.04218133
172	0x3d77d1f3	0.060502958
173	0x3d8a3b5a	0.06749602
174	0xbcc784f4	-0.02435539
175	0xbd8d2cf8	-0.06893343
176	0x3dafc1d4	0.08581892
177	0x3d691579	0.056905244
178	0x3de33f78	0.1109609
179	0x3e116cb5	0.14201625
180	0xbd42235f	-0.047397014
181	0x3e0e4dd3	0.13896875
182	0xbd63057c	-0.055425152
183	0x3d8c7e08	0.06859976
184	0x3c57878a	0.013154874
185	0xbdc63de2	-0.09679772
186	0xba5d9291	-0.0008452321
187	0x3d2485bd	0.040166605
188	0xbd0d641c	-0.0345193
189	0x3c119a10	0.008886829
190	0x3e13e107	0.1444131
191	0x3df31a85	0.118702926
192	0xbcda92ad	-0.026681269
193	0xbdccb1a4	-0.0999482
194	0x3d8ddcdb	0.069268905
195	0xbe0c425c	-0.13697189
196	0xbd87935c	-0.066199034
197	0x3c295718	0.010335706
198	0x3dc3e9f9	0.09566111
199	0x3e0101b6	0.12598309
200	0xbd9128a8	-0.07087833
201	0x3d90d876	0.07072537
202	0x3d3d81a1	0.046266202
203	0x3d477621	0.04869664
204	0xbdaee827	-0.08540373
205	0x3b8d600e	0.004314429
206	0xbcc1fb06	-0.023679268
207	0xba46ea49	-0.0007588012
208	0x3c81eb0f	0.015859155
209	0x3d4e9c8e	0.05044227
210	0x3920edf9	0.00015347441
211	0x3c09119e	0.008366017
212	0x3d125ac7	0.035731103
213	0xbd8bc025	-0.06823758
214	0xbe18abac	-0.14909238
215	0xbdd5dfb6	-0.1044306
216	0x3ac4b7bf	0.0015008374
217	0xbe10ce34	-0.1414116
218	0xbc4d54f6	-0.012532463
219	0x3d90b982	0.07066633
220	0x3d89d318	0.06729716
221	0x3db63dda	0.08898516
222	0xbd603d0f	-0.05474573
223	0xbd59e39c	-0.05319558
224	0x3c1f1625	0.0097098695
225	0xbe0d8e8b	-0.13823907
226	0xbcede51f	-0.029039918
227	0x3dbe9b76	0.093069956
228	0x3e03fddc	0.12889808
229	0x3d895f6d	0.06707654
230	0x3d5dbeab	0.054136913
231	0x3da1ce4c	0.07900676
232	0x3d5ee062	0.054413207
233	0xbbc9a46e	-0.0061536347
234	0x3dfaa059	0.12237615
235	0xbd0217b4	-0.031760886
236	0x3ddd7607	0.108135276
237	0x3c95f533	0.018305397
238	0xbc4bc405	-0.012436871
239	0x3e1bcc2f	0.15214609
240	0x3e0b24fc	0.13588327
241	0x3d94c454	0.07264009
242	0xbe294ac6	-0.1653243
243	0xbb7c32a5	-0.0038482335
244	0x3d7d5bb9	0.06185505
245	0x3de36be1	0.11104561
246	0xbe10f51c	-0.14156002
247	0xbb3f9ba3	-0.0029237054
248	0x3e053c3a	0.13011256
249	0xbe28085e	-0.16409442
250	0x3d982ce0	0.07430434
251	0xbd0baa9d	-0.034098256
252	0xbd488f89	-0.04896501
253	0xbe28c93b	-0.16483013
254	0x3ddb1217	0.1069681
255	0xbd6f2892	-0.0583883

gru_layers.weight_hh_l1 f4 [192, 64]
0	0xbdba269d	-0.09089396
1	0xbd9457c8	-0.072433054
2	0x3e1e0fcb	0.15435712
3	0xbdb81dec	-0.08990082
4	0xbd9f3496	-0.07773702
5	0xbd095633	-0.03352947
6	0x3bba38a3	0.005683021
7	0xbca8768c	-0.02056434
8	0xbc116ae9	-0.008875587
9	0xbbba0cce	-0.005677796
10	0x3d4b0b3a	0.049571253
11	0xbd0350c2	-0.03205944
12	0xbdadacd0	-0.08480227
13	0x3d018a42	0.031625994
14	0x3da7513f	0.08169793
15	0x3c2a9cb9	0.010413342
16	0xbde6e389	-0.11273868
17	0x3db2ebd1	0.08736385
18	0x3d3d7d5b	0.046262126
19	0x3c897cc6	0.01678313
20	0x3d081836	0.033226214
21	0x3dc1a26a	0.09454806
22	0x3d23fa74	0.040033773
23	0x3d8ccadc	0.0687463
24	0xba9ef99e	-0.0012128835
25	0x3d7b6dc9	0.061383996
26	0x3b7957a6	0.0038046627
27	0xbdd5625d	-0.10419152
28	0x3d6d7766	0.057975195
29	0x3db3eaf0	0.08785045
30	0x3e10e69c	0.1415047
31	0xbdff5033	-0.12466469
32	0xbc9092f5	-0.0176482
33	0x3db4fa15	0.08836762
34	0x3db06e64	0.08614805
35	0xbd844b1b	-0.06459638
36	0xbdc3c060	-0.09558177
37	0xbe099beb	-0.13438384
38	0xbe17f338	-0.14838874
39	0xbd2d9d17	-0.04238614
40	0xbdda93cd	-0.10672722
41	0xbd8bf0dc	-0.0683305
42	0xbbb91422	-0.005648152
43	0x3ddef21c	0.108860224
44	0xbd9c9dc6	-0.076472804
45	0x3de2bb40	0.11070871
46	0xbd4c5755	-0.049887974
47	0x3e09e83f	0.13467501
48	0xbba45812	-0.0050153816
49	0x3d3f7a4c	0.04674749
50	0x3d636961	0.05552042
51	0xbd4d2cfd	-0.050091732
52	0xbdaebb42	-0.0853181
53	0xbd617248	-0.055040628
54	0xbdeecfa8	-0.11660701
55	0x3d7052ae	0.0586726
56	0xbc6b2d35	-0.01435404
57	0xbcb676a1	-0.022273364
58	0xbdf535e3	-0.11973169
59	0xbc5c098e	-0.013430012
60	0xbe02b2f6	-0.1276358
61	0xbd07c3d7	-0.03314575
62	0xbd08264a	-0.03323964
63	0x3e193b7f	0.14964102
64	0xbd410dc0	-0.047132254
65	0xbe22b923	-0.15890937
66	0xbd25674e	-0.040381722
67	0xbd63e8a2	-0.055641778
68	0x3d87cd5e	0.066309676
69	0xbda2b5a0	-0.079447985
70	0x3deed721	0.11662126
71	0xbd301ea7	-0.042997982
72	0x3e1f8379	0.15577497
73	0xbe134ef1	-0.14385583
74	0x3d92970e	0.07157718
75	0xbda6e3d5	-0.08148924
76	0x3e20a231	0.15686871
77	0xbd1aaffa	-0.03776548
78	0x3de0a6a3	0.109692834
79	0x3cca6b0a	0.024709243
80	0x3d3f95d9	0.046773765
81	0xbda15c3c	-0.078789204
82	0x3b18862a	0.0023273327
83	0xbd4f6438	-0.050632685
84	0x3d5d467c	0.054022297
85	0x3d3e34f3	0.046437215
86	0x3d0cbf60	0.034362197
87	0xbd49542b	-0.049152534
88	0x3d8754c1	0.066079624
89	0xbd9b97f1	-0.0759734
90	0xbe23d799	-0.16000213
91	0x3d4ea332	0.050448604
92	0x3a911e6d	0.001107169
93	0x3dd4bcb1	0.103875525
94	0xbd8f3b5f	-0.06993746
95	0xbdb8f850	-0.09031737
96	0x3d757fa8	0.059936196
97	0x3e013568	0.12618029
98	0x3d2d226a	0.042269148
99	0xbd0506cf	-0.032477196
100	0xbda7f417	-0.08200853
101	0xbe23c90a	-0.15994659
102	0xbe1a749f	-0.1508355
103	0xbd855ba8	-0.06511623
104	0xbc9a75e6	-0.018855046
105	0x3e19d343	0.15021996
106	0x3cda6c01	0.026662828
107	0xbccb8184	-0.024842031
108	0xbc0abc61	-0.008467765
109	0x3b4a41e5	0.003086203
110	0xbd1697ab	-0.036765736
111	0x3d6cabe9	0.057781134
112	0xbe16fee6	-0.14745674
113	0xbd390726	-0.045172833
114	0x3ded3b65	0.11583594
115	0xbe1a86a6	-0.15090427
116	0x3a481f84	0.0007634091
117	0xbd159360	-0.0365175
118	0xbe1fc1b5	-0.15601237
119	0x3d4bd460	0.049763083
120	0xbe1be060	-0.15222311
121	0xbc47197f	-0.012152075
122	0xbd9816bb	-0.074262105
123	0xbdc89a57	-0.09795063
124	0xbc8f4be4	-0.017492242
125	0x3d51b5fa	0.051198937
126	0xbc8ed05c	-0.017433338
127	0x3d893b81	0.067008026
128	0x3db1ca71	0.08681191
129	0xbde1a54b	-0.11017855
130	0xbc033afc	-0.008009668
131	0xbe1401fe	-0.14453885
132	0xbe116e01	-0.1420212
133	0xbdeefd92	-0.116694584
134	0x3c6683da	0.014069522
135	0x3e068006	0.13134775
136	0xbcb0d065	-0.021583745
137	0xbd832e31	-0.06405295
138	0xbd9357e7	-0.071945004
139	0x3d90e5dc	0.07075092
140	0xbd35e331	-0.04440612
141	0x3cff7c71	0.031187268
142	0xbd8aec33	-0.06783333
143	0x3da2a681	0.07941914
144	0xbd031f9d	-0.03201257
145	0xbd510479	-0.051029656
146	0xbd2784a4	-0.04089798
147	0xbcfd3a29	-0.030911522
148	0x3b966996	0.0045902235
149	0xbd81f788	-0.06346041
150	0x3d339b32	0.043849178
151	0x3d7afd65	0.061276812
152	0x3d7e04b4	0.062016204
153	0xbd7a8e68	-0.061170965
154	0x3dbd62fe	0.09247397
155	0xbbbe9d94	-0.0058171246
156	0xbd83deaf	-0.06438958
157	0xbd6c8672	-0.057745405
158	0x3dc63d11	0.09679616
159	0xbe0c1e01	-0.1368332
160	0xbc6af32f	-0.014340206
161	0x3dbda635	0.09260217
162	0xbd7d54d6	-0.061848484
163	0x3d8bbe6b	0.06823429
164	0xbd60bd8c	-0.054868266
165	0xbd071c2a	-0.032985844
166	0x3dba55cd	0.090983965
167	0x3d4770b7	0.048691478
168	0xbe026ce1	-0.12736847
169	0xbdb69439	-0.0891499
170	0xbcd60355	-0.026124636
171	0x3cb57830	0.022152036
172	0xbc9dda3c	-0.019269101
173	0xbdab2b83	-0.083579086
174	0x3db2fd78	0.087397516
175	0x3d2f8ccf	0.042858895
176	0x3beb5723	0.0071820184
177	0x3c14602d	0.009056133
178	0x3d43f7c7	0.04784372
179	0xbcaacd89	-0.02084996
180	0xbdd12c24	-0.10213497
181	0xbc8b2f9b	-0.016990473
182	0x3d007442	0.031360872
183	0xbc5c4ce9	-0.013446071
184	0xbd52c0af	-0.05145329
185	0xbd8b741c	-0.068092555
186	0xbbb2f510	-0.0054613426
187	0xbc011af3	-0.00787996
188	0x3dbf31ee	0.09335695
189	0xbc1e9165	-0.009678219
190	0xbde068c8	-0.109574854
191	0x3dae4cd4	0.085107476
192	0x3e1db132	0.15399626
193	0xbe2461c9	-0.16052927
194	0x3d132bb1	0.03593034
195	0x3da1622e	0.078800544
196	0xbc146bb2	-0.00905888
197	0x3d2d360e	0.04228788
198	0x3c2193c6	0.009861892
199	0xbc5a871f	-0.013337879
200	0x3e131efc	0.14367288
201	0x3cc501f0	0.024048775
202	0x3da7fa4f	0.082020395
203	0x3d87a1fb	0.06622692
204	0x3e2630c6	0.16229543
205	0x3cd20b6f	0.025640218
206	0xbc51b0f5	-0.0127985375
207	0x3dcb931c	0.09940168
208	0xbdf9988b	-0.121872984
209	0xbe1c3093	-0.15252905
210	0xbd7a3f73	-0.061095666
211	0xbc89434c	-0.016755722
212	0xbd79f19f	-0.061021443
213	0x3a99b06f	0.0011725555
214	0xbe2583a8	-0.16163504
215	0xbb64da2c	-0.003492008
216	0xbd07b070	-0.03312725
217	0xbcc0a7d1	-0.023517521
218	0xbd5df6bc	-0.054190382
219	0x3d5b9f6e	0.05361884
220	0x3de5d7ca	0.11222799
221	0x3daee787	0.08540254
222	0x3d65ecf0	0.056134164
223	0xbe266c1b	-0.16252176
224	0x3b0458fb	0.0020194638
225	0x3e053166	0.13007125
226	0x3cb999ed	0.022656405
227	0x3d769978	0.060204953
228	0xbdd312d0	-0.103063226
229	0x3d0c5e58	0.03426966
230	0xbdcf20b0	-0.101136565
231	0x3de47a45	0.111561336
232	0xbd9d6d99	-0.0768692
233	0x3d3397d7	0.043845978
234	0xbd9f5336	-0.07779543
235	0x3e1a8bda	0.15092412
236	0xbe1a4c90	-0.15068269
237	0x3d632e99	0.05546436
238	0x3e04b877	0.12960993
239	0x3dea8f9a	0.11453171
240	0xbe108894	-0.141146
241	0x3e0ed437	0.13948141
242	0xbd972101	-0.07379342
243	0x3d10b0d6	0.035324894
244	0xba16ec5e	-0.00057572674
245	0x3e18eeaa	0.14934793
246	0xbd8653c9	-0.065589495
247	0x3d358a81	0.04432154
248	0x3d1de74a	0.038550653
249	0x3d26f89d	0.04076444
250	0xbe0cc5c1	-0.13747312
251	0xbd563609	-0.052297626
252	0xbe073b4d	-0.13206215
253	0xbd43d28d	-0.04780822
254	0x3da9f1f0	0.08298099
255	0xbd801c63	-0.06255414

dense.weight f4 [64, 64]
0	0x3c482912	0.012216823
1	0xbdb83762	-0.089949384
2	0x3d3bd1ea	0.045854487
3	0xbd787c81	-0.06066561
4	0xbdb0b7a6	-0.08628778
5	0xbc57560b	-0.013143073
6	0x3cbd3f90	0.023101598
7	0x3d4bfa7f	0.04979944
8	0x3dc45ec9	0.09588391
9	0xbd7ce843	-0.06174494
10	0xbd6198d8	-0.055077404
11	0xbd1bab3d	-0.038005102
12	0x3d236d13	0.039898943
13	0xbd26ce0f	-0.040723857
14	0x3cb5c704	0.022189625
15	0x3d881688	0.066449225
16	0xbdca1d4a	-0.09868868
17	0xbdadc7d7	-0.08485382
18	0x3d4eb128	0.050461918
19	0xbda719d7	-0.081592254
20	0xbd6cc08e	-0.057800822
21	0x39aa6642	0.00032501115
22	0xbd6bb891	-0.057549063
23	0x3d3ec518	0.046574682
24	0x3d937591	0.072001584
25	0xbde1f878	-0.1103372
26	0xbdadbe6f	-0.08483588
27	0x3d0dbea5	0.03460564
28	0x3da906c5	0.08253244
29	0x3d82b141	0.06381465
30	0x3da26499	0.07929344
31	0xbc0c5795	-0.008565803
32	0x3db8b441	0.09018756
33	0x3d432c21	0.047649506
34	0x3dd77fd0	0.10522425
35	0x3d1f583c	0.038902506
36	0xbd80e4d6	-0.06293647
37	0xbd623094	-0.05522211
38	0xbdcc9094	-0.099885136
39	0x3d9ef1c7	0.07760959
40	0xbd8f7544	-0.070047885
41	0x3d94c984	0.072649986
42	0xbda42eeb	-0.080167614
43	0x3d80d5e3	0.06290796
44	0xbda1940e	-0.07889567
45	0x3d99e05d	0.07513497
46	0x3d5b01bd	0.053468455
47	0x3dcad75b	0.09904357
48	0xbc8f11c3	-0.017464524
49	0x3d92b412	0.07163252
50	0x3d2d39b2	0.04229135
51	0xbd29323e	-0.04130768
52	0x3d5c3278	0.05375907
53	0x3cc3eba5	0.023916075
54	0xbcad488e	-0.02115276
55	0xbc3944c1	-0.011307896
56	0xbd36c533	-0.044621658
57	0xbd799800	-0.060935974
58	0xbda314e4	-0.07962969
59	0xbda6b5a5	-0.08140115
60	0xbd1d0ba6	-0.038341187
61	0x3d83f24b	0.06442698
62	0xbd5d8673	-0.0540833
63	0x3d8b8ce9	0.06813986
64	0xbb43b56d	-0.0029862777
65	0xbc8d7321	-0.017266812
66	0xbca83529	-0.020533161
67	0x3c86fa5b	0.0164768
68	0x39fe4c5d	0.0004850355
69	0xbd3092c1	-0.043108705
70	0x3b8ffb9a	0.004394007
71	0x3d5ebce0	0.054379344
72	0x3d0e50ba	0.034744956
73	0xbd20e36f	-0.039279398
74	0x3cbe8e7b	0.0232613
75	0xbd0d9af1	-0.03457159
76	0xbc8c5e1c	-0.017134719
77	0xbd0c99a0	-0.034326196
78	0x3ade78e2	0.0016973282
79	0xbb27eb51	-0.0025622437
80	0xbd098022	-0.033569463
81	0xbbb8c03d	-0.005638151
82	0x3b476a82	0.0030428474
83	0xbbf45c37	-0.007457282
84	0xbc8271dc	-0.015923433
85	0xbbe7c083	-0.0070725097
86	0xbd8e1894	-0.06938282
87	0x3cccb7ef	0.02499005
88	0x3d404dfb	0.046949368
89	0xbd221ac8	-0.03957632
90	0x3c7d310f	0.015453591
91	0xbc23a831	-0.00998883
92	0x3d4a8ea7	0.04945245
93	0x3b3daa12	0.002894048
94	0x3b7de8e5	0.0038743552
95	0xbc8d9d9d	-0.01728707
96	0x3c961383	0.01831985
97	0x3c606562	0.013696047
98	0x3cd944fd	0.026522154
99	0x3bbf37fd	0.0058355317
100	0xbcabf272	-0.02098963
101	0xbc721ee4	-0.014777873
102	0xbd38b372	-0.045093007
103	0x3d3df33e	0.046374552
104	0xbcd5c229	-0.02609356
105	0x3d2aaea3	0.041670453
106	0xbc897f4a	-0.016784329
107	0x3b9ff20a	0.004881148
108	0xbab42660	-0.0013744347
109	0xbc87e894	-0.016590394
110	0x37d9511a	2.5906182e-05
111	0x3d52cfb1	0.0514676
112	0xba58a84f	-0.0008264826
113	0x3b6fcede	0.0036591808
114	0xbd05c50c	-0.03265862
115	0xbccb6bf4	-0.02483175
116	0x3d4798ff	0.048729893
117	0x3c7815d1	0.01514192
118	0xbc6f0325	-0.014588152
119	0xbbf4df1b	-0.0074728853
120	0x3d5bfeb0	0.053709686
121	0xbb83dee3	-0.004024373
122	0xbd7a0688	-0.061041385
123	0xbd548bfc	-0.051891312
124	0xbcbef360	-0.02330941
125	0x3b939dce	0.004504896
126	0xbca3a847	-0.019977702
127	0xbb9920a1	-0.004673079
128	0xbd170ce2	-0.03687752
129	0x3d33cf3d	0.04389881
130	0xbd592587	-0.053014304
131	0xbcc5fa0f	-0.024167089
132	0x3b35dd49	0.0027750304
133	0x3be43aab	0.0069650016
134	0x3cda8720	0.02667576
135	0x3bb661b7	0.0055658477
136	0x3b7c18de	0.003846697
137	0x3c14599a	0.009054566
138	0x3d19085b	0.037361484
139	0x3beb8e74	0.0071886126
140	0xbc6e94ed	-0.014561874
141	0x3bec14f1	0.007204645
142	0x3ce286d4	0.027652182
143	0x3d1ce74f	0.03830653
144	0x3c664200	0.014053822
145	0x3cb61b76	0.022229891
146	0x3bcf7081	0.00633055
147	0xbd1f65f2	-0.038915582
148	0x3c214a51	0.009844379
149	0x3cfe2379	0.031022774
150	0xbc825ee5	-0.01591439
151	0xbc3ba196	-0.011452099
152	0x3c5331ce	0.012890292
153	0x3c3094be	0.01077765
154	0xba9d3642	-0.001199432
155	0x3c82841f	0.01593214
156	0xbb1a8de6	-0.0023583113
157	0xbd12bf87	-0.035827186
158	0xbd7a6023	-0.06112684
159	0x3d1af58b	0.037831824
160	0x3d61fd2c	0.055173084
161	0x3d31811c	0.04333602
162	0xbcae8178	-0.02130197
163	0xbc55dde7	-0.013053394
164	0xbcfc7cbe	-0.0308212
165	0x3bbe3da2	0.005805687
166	0xbcedcb40	-0.029027581
167	0x3c0da8f3	0.008646238
168	0xbc4066f8	-0.0117433
169	0x3bfffaf0	0.0078118965
170	0xbb0b4d7f	-0.0021255908
171	0xbc9021de	-0.017594274
172	0xbcd9589a	-0.026531506
173	0x3bd3b270	0.0064604804
174	0x3b886450	0.004162349
175	0xbc8b8fa2	-0.017036263
176	0xbd0e4ab7	-0.034739222
177	0x3bb77fef	0.0055999677
178	0xbd02fb17	-0.03197774
179	0xbd28b3cf	-0.041187104
180	0x3d13df29	0.036101494
181	0xbd9c6164	-0.07635763
182	0x3cf50930	0.029911608
183	0xbcc3cba2	-0.02390081
184	0xbb810400	-0.0039372444
185	0xbc104a9a	-0.008806849
186	0xbc4c8e21	-0.012485058
187	0x3a9a3d41	0.0011767523
188	0xbbeaabbf	-0.007161587
189	0x3c8c976a	0.017162044
190	0xbbdc4855	-0.00672249
191	0xbbace4ee	-0.005276314
192	0xbcd6b2a5	-0.026208231
193	0x3d64350d	0.055714656
194	0xbd201bf7	-0.03908917
195	0x3d68232c	0.056674168
196	0x3da92228	0.08258468
197	0x3bb58024	0.005538957
198	0xbd3f688c	-0.046730563
199	0xbd0029f4	-0.03129001
200	0xbd942645	-0.07233862
201	0x3d8bab4d	0.068197824
202	0x3cf0c16d	0.029389108
203	0x3d9a98e4	0.07548693
204	0x3c0b1a05	0.00849009
205	0x3cfbdff3	0.030746436
206	0xbd666cac	-0.05625598
207	0xbc869946	-0.016430508
208	0x3d3eb0ce	0.046555333
209	0x3d2f2c69	0.042766962
210	0xbce7cb9e	-0.028295334
211	0x3dad3cba	0.08458848
212	0x3c66ac66	0.014079189
213	0x3b00d26d	0.0019656674
214	0x3d4f54d4	0.050618008
215	0xbcc7ecf7	-0.024404986
216	0xbd8c99c2	-0.068652645
217	0x3d699151	0.05702335
218	0x3d4bd21d	0.049760927
219	0xba8722aa	-0.0010310013
220	0xbd189d35	-0.0372593
221	0xbd3abd34	-0.045590594
222	0xbc965aeb	-0.0183539
223	0x3ca5befe	0.020232674
224	0xbcec0ce0	-0.028814733
225	0x388893a7	6.512488e-05
226	0xbc888254	-0.016663708
227	0xbd1c6988	-0.03818658
228	0x3d281572	0.041036077
229	0x3bdee909	0.0068026823
230	0x3cb9cf12	0.022681747
231	0xbd64f4f7	-0.05589768
232	0xbb35f59e	-0.0027764807
233	0xbd2a3006	-0.041549705
234	0x3d2e85ed	0.04260819
235	0xbd5e51cc	-0.054277226
236	0x3ce081eb	0.0274057
237	0xbd8d30fc	-0.06894109
238	0xbbb49ec5	-0.005512091
239	0xbd8ed085	-0.06973366
240	0x3d8244f6	0.063608095
241	0xbcfc733f	-0.030816672
242	0xbda59b89	-0.080863066
243	0x3cc7c98a	0.024388094
244	0xbd8bc822	-0.06825282
245	0xbd22d472	-0.039753385
246	0x3c06a125	0.008217131
247	0x3d89a6bf	0.067212574
248	0x3c2e0f17	0.010623715
249	0x3d2907e2	0.041267283
250	0x3d92b596	0.07163541
251	0x3d308c57	0.04310259
252	0x3c0b0544	0.008485142
253	0xbc9bd8f1	-0.019024344
254	0x3d38b223	0.04509176
255	0xbce77421	-0.028253617

dense.bias f4 [64]
0	0x3de836fb	0.11338612
1	0x3dc35613	0.09537902
2	0x3dcc88cb	0.09987029
3	0xbdd89c60	-0.10576701
4	0xbde3c0a7	-0.1112073
5	0x3db9d4d2	0.090737954
6	0x3dcf930c	0.10135469
7	0xbdbfbf48	-0.09362656
8	0x3dd7df0a	0.10540588
9	0xbdc053b5	-0.09390966
10	0xbdb4f8a6	-0.088364884
11	0xbdc01744	-0.093794376
12	0xbdc8d897	-0.09806936
13	0x3da38ef2	0.07986249
14	0xbdc6f177	-0.097140245
15	0xbded2222	-0.11578776
16	0xbdca754a	-0.09885652
17	0x3dbca7a3	0.09211662
18	0x3de24815	0.11048905
19	0xbdba9784	-0.091109306
20	0xbdd86cbc	-0.105676144
21	0x3de592a0	0.11209607
22	0x3dc6144e	0.096718416
23	0xbdbd8100	-0.092531204
24	0xbdbe5547	-0.09293609
25	0xbdcfc902	-0.10145761
26	0xbdbd378d	-0.09239111
27	0xbdc0fe11	-0.09423459
28	0xbd3a064b	-0.045416158
29	0xbd8244f8	-0.06360811
30	0xbdcea927	-0.10090857
31	0xbdbce00f	-0.09222423
32	0xbdc395a3	-0.09550025
33	0xbdc9f4f7	-0.098611765
34	0xbdb81101	-0.08987618
35	0xbdc2c945	-0.09511045
36	0xbd82b018	-0.063812435
37	0x3de7685c	0.11299202
38	0xbdc9bf1e	-0.09850906
39	0xbdc0d5fa	-0.09415813
40	0xbdb9e63c	-0.09077117
41	0xbdd9e0ee	-0.10638605
42	0xbdb60358	-0.088873565
43	0xbdca8153	-0.09887948
44	0xbd8d0117	-0.068849735
45	0x3dca0323	0.098638795
46	0xbd825136	-0.06363146
47	0xbddbf724	-0.10740498
48	0x3dbaa6c7	0.091138415
49	0x3db944af	0.090463035
50	0x3d30b55b	0.043141704
51	0x3dd6878e	0.10475074
52	0x3db80cad	0.08986793
53	0xbde8d1cd	-0.11368141
54	0xbdc4338e	-0.09580146
55	0xbdcada0b	-0.0990487
56	0xbdb30591	-0.08741296
57	0xbdc6ac38	-0.09700817
58	0xbdb66126	-0.08905248
59	0xbdc75176	-0.09732334
60	0xbd983c3a	-0.07433362
61	0xbdca8810	-0.09889233
62	0xbdc5c662	-0.09656979
63	0xbdb6c00e	-0.0892335
