output/ml-100k/SASRec.pt (torch, 869382 bytes, 51 tensors)

item_bias f4 [1683]
0	0x00000000	0.0
1	0x3e1546e8	0.1457783
2	0x3e6165ef	0.22011541
3	0x3c1801a3	0.009277734
4	0xbd3df06e	-0.04637187
5	0x3e358296	0.17725596
6	0xbc510dac	-0.012759607
7	0x3e414ed7	0.18877731
8	0x3e5852bd	0.21125312
9	0x3d3a0d31	0.045422737
10	0xbe940254	-0.28908026
11	0xbcbcb297	-0.023034377
12	0x3dc5ece9	0.09664328
13	0x3d2d6569	0.04233304
14	0xbc1563be	-0.009118019
15	0xbe204444	-0.15651041
16	0xbdae656f	-0.08515441
17	0xbc36ab45	-0.011149232
18	0x3c99c66a	0.018771369
19	0x3e104a72	0.14090899
20	0xbd067cf8	-0.032834023
21	0x3e61d26b	0.22052924
22	0xbd5b68d3	-0.053566765
23	0x3e0142cd	0.12623139
24	0x3dc949e0	0.09828544
25	0x3de082d4	0.109624535
26	0xbd8de7a7	-0.0692895
27	0xbe2dd3f8	-0.16975391
28	0xbe818d8f	-0.25303313
29	0x3e7a9ebb	0.24474613
30	0x3e466e98	0.19378126
31	0x3d925d65	0.0714672
32	0x3e7828fe	0.24234387
33	0x3decf74d	0.115706064
34	0xbdc45244	-0.095860034
35	0x3e48d534	0.1961258
36	0xbd53b299	-0.051683996
37	0x3ce05a1a	0.027386714
38	0xbcb4d366	-0.022073459
39	0xbdec7dd1	-0.11547435
40	0x3de2b744	0.110701114
41	0x3dfc0f50	0.12307608
42	0x3df1ec77	0.1181268
43	0xbccda6a6	-0.025103878
44	0x3d16f4f2	0.03685469
45	0x3d256376	0.040378056
46	0xbdf2be36	-0.11852686
47	0xbe50d428	-0.20393431
48	0xbd7b8133	-0.06140251
49	0x3b1443a6	0.002262333
50	0xbcc6003c	-0.024170034
51	0xbe55fded	-0.20897646
52	0xbd28dbc0	-0.041225195
53	0xbdead481	-0.11466313
54	0x3c2de6ea	0.010614136
55	0xbd35eb5b	-0.044413906
56	0x3a3eae7a	0.0007273924
57	0xbe24d04c	-0.16095084
58	0xbe1c5d5c	-0.15269989
59	0xbd5045ef	-0.050847944
60	0x3d6c769a	0.057730295
61	0x3daa361d	0.083111025
62	0x3ba814a8	0.0051294155
63	0x3be8e506	0.00710738
64	0x3c0c4081	0.008560301
65	0xbe7d9264	-0.24762875
66	0x3be2b428	0.006918449
67	0x3dd14eb9	0.10220093
68	0x3d62c95e	0.05536782
69	0xbd2cb00b	-0.042160075
70	0x3d49c495	0.04925974
71	0xbe96a8d5	-0.29425684
72	0x3de9fd9f	0.114253275
73	0xbe46deef	-0.1942098
74	0xbe29f7c0	-0.16598415
75	0xbe7ada9d	-0.24497457
76	0x3e9e73bf	0.30947682
77	0xbe1b4c0a	-0.15165725
78	0xbe8f477d	-0.2798423
79	0xbe2e5480	-0.17024422
80	0xbe81ef0a	-0.25377685
81	0xbe2c9840	-0.16854954
82	0xbca76bd0	-0.020437151
83	0xbe12e254	-0.1434415
84	0x3c1aacf1	0.0094406465
85	0xbe257dc1	-0.16161253
86	0xbd81e9a2	-0.0634339
87	0x3d638a44	0.055551782
88	0x3e2952fd	0.16535564
89	0x3de2ef12	0.11080755
90	0x3de9a2fd	0.11408041
91	0xb8b2d25c	-8.526884e-05
92	0x3df013fd	0.117225625
93	0xbc077fde	-0.008270232
94	0x3dac3e77	0.08410352
95	0xbd188dac	-0.037244484
96	0xbd264438	-0.040592402
97	0x3d8b37b5	0.06797735
98	0xbbb6611b	-0.005565775
99	0xbdc1dabb	-0.09465548
100	0xbddec4cb	-0.10877379
101	0x3bc54dbe	0.0060212305
102	0xbc3f7435	-0.011685421
103	0xbe2dd04e	-0.16973993
104	0xbde4dbaa	-0.1117471
105	0xbd87fe8e	-0.06640349
106	0x3e9eb2be	0.30995744
107	0xbd832823	-0.0640414
108	0x3caabbcd	0.020841504
109	0xbcc35cf7	-0.02384804
110	0x3e17b510	0.14815164
111	0xbdcacd69	-0.0990246
112	0xbe49d420	-0.19709826
113	0xbbac8473	-0.0052648126
114	0x3d9c599c	0.07634279
115	0xbe5270d6	-0.20550856
116	0x3e852a9e	0.26009077
117	0x3dbc4666	0.09193115
118	0x3e4add41	0.19810964
119	0xbce301e1	-0.027710857
120	0xbd15a5ec	-0.03653519
121	0x3d044cde	0.03229987
122	0x3e82aa69	0.25520638
123	0xbeb05a50	-0.34443903
124	0x3e20c780	0.15701103
125	0x3e03fb57	0.12888847
126	0xbc8c2d28	-0.017111376
127	0x3da5e54c	0.081003755
128	0x3d43909c	0.047745332
129	0x3e5abb9d	0.21360631
130	0xbe89f4b4	-0.26944506
131	0x3e17d4f4	0.14827329
132	0x3dcb8121	0.09936739
133	0x3e325787	0.17416202
134	0xbe56c669	-0.20974125
135	0xbd0cf899	-0.03441677
136	0x3d89f6b1	0.06736506
137	0x3e2fbe66	0.17162475
138	0xbe3e9815	-0.18612702
139	0xbd6780aa	-0.056519188
140	0xbe282abd	-0.16422553
141	0xbdbc01dc	-0.09180042
142	0xbe9704c9	-0.29495838
143	0xbd1e464d	-0.038641263
144	0x3e47b83a	0.1950387
145	0xbe5789c8	-0.21048653
146	0xbe6066fc	-0.21914285
147	0xbc91ee8f	-0.017813949
148	0x3cbdaf59	0.023154901
149	0xbe200bff	-0.15629576
150	0xbe669e01	-0.22521211
151	0x3d39fe75	0.045408685
152	0x3e36d0a2	0.17853025
153	0x3d2eac65	0.042644877
154	0x3dd9868e	0.106213674
155	0x3e124785	0.14285095
156	0xbe010381	-0.12598993
157	0x3e7877d3	0.2426446
158	0xbcf18afc	-0.029485218
159	0xbe02531d	-0.12727018
160	0x3dba6054	0.091004044
161	0x3df98eab	0.12185415
162	0x3dfdf0d3	0.12399449
163	0xbe87c7ce	-0.26519626
164	0x3e57c6c6	0.2107192
165	0x3e2d05a8	0.16896689
166	0x3bc778fc	0.0060874205
167	0xbd475263	-0.048662554
168	0x3e19c9a9	0.15018333
169	0x3e9d6aee	0.30745643
170	0xbe6538e5	-0.22384985
171	0x3e8d3fa8	0.27587628
172	0xbb647e1b	-0.0034865204
173	0x3c9f5478	0.019449458
174	0x3c734187	0.014847166
175	0xbd7f0a63	-0.062265765
176	0xbc5adb85	-0.013358002
177	0xbe389ddb	-0.18028967
178	0x3e4103d3	0.18849115
179	0xbd8bfb62	-0.06835057
180	0xbe9bc739	-0.30425432
181	0x3dbdb0cc	0.09262237
182	0x3da5e142	0.08099605
183	0x3dfc8bf3	0.12331381
184	0x3e94b0c1	0.29041103
185	0x3dcc7afe	0.099843964
186	0x3e259c6a	0.16172948
187	0x3dd9420a	0.10608299
188	0xbce79e6b	-0.028273782
189	0xbd5eecb5	-0.05442496
190	0x3e2ffc48	0.17186081
191	0xbe6f56f0	-0.23373008
192	0x3e12828b	0.1430761
193	0xbcf412c3	-0.029794103
194	0xbd7cee34	-0.061750606
195	0x3d92defc	0.07171437
196	0x3e33a089	0.17541708
197	0x3d8bf13c	0.06833121
198	0x3de5c16b	0.11218532
199	0x3e1c7eea	0.15282789
200	0xbc8f560a	-0.017497081
201	0x3e8afc3b	0.27145562
202	0x3e1fc1e5	0.15601309
203	0x3daea50e	0.085275754
204	0x3cfb4c12	0.030675922
205	0xbd678d2e	-0.056531124
206	0xbbb116af	-0.0054043154
207	0x3db560d0	0.08856356
208	0xbd23b002	-0.039962776
209	0x3bac61d8	0.0052606873
210	0x3db3c059	0.08776922
211	0x3d9a3031	0.07528723
212	0xbdcb692a	-0.09932168
213	0x3db25291	0.087071545
214	0x3e552734	0.20815736
215	0x3e9b2a9b	0.30305943
216	0x3d64ea0f	0.05588728
217	0x3d263922	0.04058183
218	0x3cd0ebd1	0.025503071
219	0xbca1ffce	-0.019775297
220	0x3b500a2a	0.003174434
221	0xbd14f24c	-0.036363885
222	0x3d80b526	0.06284551
223	0xbddb2efb	-0.1070232
224	0x3e3a3f6e	0.18188259
225	0xbe988e79	-0.29796198
226	0xbe7e6ce8	-0.24846232
227	0x3d0a1389	0.033710036
228	0x3e7aefe7	0.24505578
229	0xbcca615b	-0.024704626
230	0x3c64f703	0.013974908
231	0x3d5b21c5	0.053499002
232	0x3d89a6c1	0.06721259
233	0x3d404fba	0.046951033
234	0x3e67562a	0.22591463
235	0xbd883e07	-0.06652456
236	0xbe4c387a	-0.19943419
237	0x3bf7f4ae	0.00756701
238	0x3d1f6766	0.038916968
239	0xbd083a33	-0.033258628
240	0x3deca4a3	0.115548395
241	0x3e9ebc4f	0.31003043
242	0x3de8b18d	0.1136199
243	0xbe35ed8b	-0.17766397
244	0x3d16a01d	0.03677379
245	0x3c42c826	0.011888539
246	0x3d7af506	0.06126883
247	0xbe8a7f00	-0.27050018
248	0x3ded0593	0.11573329
249	0xbd013eef	-0.03155416
250	0xbe20494f	-0.15652965
251	0xbd2f846d	-0.0428509
252	0x3e2d823f	0.16944216
253	0x3e7cdaf7	0.24692903
254	0x3cfae31d	0.030625874
255	0x3af75514	0.001886996

item_emb.weight f4 [1683, 64]
0	0x00000000	0.0
1	0x00000000	0.0
2	0x00000000	0.0
3	0x00000000	0.0
4	0x00000000	0.0
5	0x00000000	0.0
6	0x00000000	0.0
7	0x00000000	0.0
8	0x00000000	0.0
9	0x00000000	0.0
10	0x00000000	0.0
11	0x00000000	0.0
12	0x00000000	0.0
13	0x00000000	0.0
14	0x00000000	0.0
15	0x00000000	0.0
16	0x00000000	0.0
17	0x00000000	0.0
18	0x00000000	0.0
19	0x00000000	0.0
20	0x00000000	0.0
21	0x00000000	0.0
22	0x00000000	0.0
23	0x00000000	0.0
24	0x00000000	0.0
25	0x00000000	0.0
26	0x00000000	0.0
27	0x00000000	0.0
28	0x00000000	0.0
29	0x00000000	0.0
30	0x00000000	0.0
31	0x00000000	0.0
32	0x00000000	0.0
33	0x00000000	0.0
34	0x00000000	0.0
35	0x00000000	0.0
36	0x00000000	0.0
37	0x00000000	0.0
38	0x00000000	0.0
39	0x00000000	0.0
40	0x00000000	0.0
41	0x00000000	0.0
42	0x00000000	0.0
43	0x00000000	0.0
44	0x00000000	0.0
45	0x00000000	0.0
46	0x00000000	0.0
47	0x00000000	0.0
48	0x00000000	0.0
49	0x00000000	0.0
50	0x00000000	0.0
51	0x00000000	0.0
52	0x00000000	0.0
53	0x00000000	0.0
54	0x00000000	0.0
55	0x00000000	0.0
56	0x00000000	0.0
57	0x00000000	0.0
58	0x00000000	0.0
59	0x00000000	0.0
60	0x00000000	0.0
61	0x00000000	0.0
62	0x00000000	0.0
63	0x00000000	0.0
64	0x3fd7400d	1.6816422
65	0xbf091837	-0.53552574
66	0x3d8468ca	0.064652994
67	0x3e390ff0	0.18072486
68	0x3f190038	0.5976596
69	0x3f2dabd5	0.6784032
70	0xbe821db1	-0.25413278
71	0xbd582600	-0.052770615
72	0x3fb84ddb	1.439876
73	0xbf7f5b25	-0.9974845
74	0xbb56e8ce	-0.003279257
75	0xbeffcc36	-0.49960488
76	0x3f2bebd4	0.6715672
77	0x400c30cb	2.190478
78	0xbf6e8e40	-0.93185806
79	0x3f625a7e	0.8841933
80	0x3fdabcae	1.708883
81	0xbea436da	-0.32073098
82	0x39ff2c3e	0.00048670353
83	0x3e66ecde	0.22551295
84	0x3f49141f	0.7854633
85	0x4008f4c4	2.1399393
86	0xbe801fed	-0.25024357
87	0xbc457d37	-0.012053779
88	0x3e7febfb	0.24992363
89	0xbda182cb	-0.07886275
90	0xbf2ab407	-0.6668095
91	0x3f1b4585	0.60652953
92	0x3fc0baf2	1.5057051
93	0x3e7ebd6e	0.24876949
94	0xbf2ce037	-0.67529625
95	0xbf029f81	-0.51024634
96	0xbf768b8a	-0.9630667
97	0x3e4d1816	0.2002872
98	0xbf8322a8	-1.0244951
99	0xbef29f3d	-0.47387114
100	0x3f7fcdc8	0.9992337
101	0xbfd5d4fa	-1.670562
102	0x3fb77dd3	1.4335274
103	0xbfb3a3c0	-1.4034348
104	0xbf780f87	-0.9689869
105	0x3f9d065c	1.2267566
106	0xbf28fd04	-0.6601107
107	0xbe03ffbf	-0.12890528
108	0x3e03a6cc	0.12856597
109	0x3ef8de30	0.48607016
110	0xbf29be51	-0.66306025
111	0xbf586a1d	-0.84536916
112	0x3f6fd199	0.93679196
113	0x3f41449c	0.75495315
114	0xbf76318e	-0.96169364
115	0x3ee35b10	0.44405413
116	0x3f7d061e	0.9883746
117	0x402a9572	2.6653714
118	0xbeb815b4	-0.35954058
119	0xbe80445b	-0.2505215
120	0x3ff11677	1.8834981
121	0xbf97faa7	-1.1873368
122	0x3ddc7e0b	0.10766228
123	0x3faac373	1.3340896
124	0x3edade7e	0.42747873
125	0x3f1f5b38	0.62248564
126	0x3fa94ef1	1.3227216
127	0x3f6aec38	0.9176669
128	0xbcf0b696	-0.029383939
129	0xbf613422	-0.87970173
130	0xbdf92f66	-0.12167244
131	0xbf33b196	-0.7019285
132	0x3ec1f51b	0.37882313
133	0x3eb89063	0.36047658
134	0xbfc621f6	-1.5479114
135	0xbf8d52ae	-1.1040857
136	0xbea8bf24	-0.3295833
137	0x3f8723ce	1.0557802
138	0xbfbefd92	-1.4921134
139	0xbf50c7f7	-0.8155512
140	0xbfa99031	-1.3247129
141	0x3e255812	0.16146877
142	0xbe35bdf5	-0.17748244
143	0x3e4f77e0	0.20260572
144	0x3f675e53	0.903783
145	0x3f1f0096	0.6211027
146	0x3fbec730	1.4904537
147	0xbe7c8992	-0.24661854
148	0x3e63a7b6	0.22231945
149	0xbfaa4e6d	-1.3305184
150	0x3ea81076	0.3282506
151	0x3f35f7a3	0.7108099
152	0xbf9f9687	-1.2467812
153	0x3d111469	0.035419855
154	0x3f1c9fc2	0.6118127
155	0x3eda9b9a	0.4269684
156	0x3e889c5f	0.26681802
157	0x3e8769f6	0.2644803
158	0x3f48ba4c	0.78409266
159	0x3f965541	1.1744767
160	0xbf9bc08a	-1.2168133
161	0x3f024620	0.5088825
162	0x3f88758c	1.0660872
163	0x3f3db66e	0.7410649
164	0xbe714f9c	-0.23565525
165	0x3ef9ea3e	0.48811525
166	0xbf43b875	-0.76453334
167	0xbf19e6e1	-0.6011792
168	0x3f2d1dbe	0.6762351
169	0xbf9808bd	-1.1877667
170	0xbeb42a98	-0.35188746
171	0xbfc6933e	-1.5513685
172	0x3eb70461	0.35745528
173	0x3e346d37	0.17619787
174	0x3f0d7a11	0.55264384
175	0xbe9b11aa	-0.30286914
176	0x3f00b75a	0.5027977
177	0x3f8e8b4b	1.1136259
178	0xbfb9e840	-1.4524002
179	0x3cd17e31	0.025572868
180	0x3f307f97	0.68944687
181	0x3fb0264f	1.3761691
182	0xbf89cd2f	-1.0765742
183	0xbd63ae10	-0.05558592
184	0x3ef618fc	0.48065937
185	0x3f0af746	0.5428356
186	0xbfe82534	-1.8136353
187	0x3f894424	1.072392
188	0xbd9ab7f6	-0.07554619
189	0x3fcd45bb	1.6036905
190	0xbed402a8	-0.41408277
191	0xbef0bdeb	-0.47019896
192	0x3dc5e559	0.09662885
193	0x3f9a296f	1.2043895
194	0xbf358eab	-0.7092082
195	0xbf7838a0	-0.969614
196	0xbf8e99c6	-1.1140678
197	0x3e8e62b4	0.2780968
198	0xbea4d69b	-0.3219498
199	0xbfe5aa0e	-1.7942522
200	0xc00eb4a9	-2.2297766
201	0x3f8cd011	1.1000997
202	0x3f503e14	0.81344724
203	0x3ee01fe9	0.43774346
204	0x3f7d30c2	0.98902524
205	0xbf59694d	-0.849263
206	0xbfb68470	-1.4259167
207	0xbe5acd76	-0.2136744
208	0xbe958e09	-0.29209927
209	0xbe34c062	-0.17651513
210	0x3fcf7d1b	1.6210054
211	0xbef3907e	-0.47571176
212	0xbec62adc	-0.38704574
213	0xbdbc5318	-0.091955364
214	0xbfa8443f	-1.3145827
215	0xbfc9dc43	-1.5770344
216	0x3e9c8f78	0.30578208
217	0xbfa8b547	-1.3180321
218	0xbfd145c0	-1.6349411
219	0xbe16cae2	-0.14725831
220	0x3cdc60c3	0.026901608
221	0x3fc968bd	1.5735089
222	0xbe2f786d	-0.17135783
223	0x3e5f12c0	0.21784496
224	0xbe183e8a	-0.14867607
225	0xbe5d6aaa	-0.2162272
226	0x3e3dad2a	0.18523088
227	0xc00c5954	-2.1929522
228	0xbf175e2d	-0.59128076
229	0x3d58c6e2	0.052924044
230	0x3e092a7c	0.13395113
231	0xbeafd970	-0.3434558
232	0x3e840b07	0.25789663
233	0xbe89daeb	-0.26924834
234	0xbf77541d	-0.9661272
235	0x3f123a8b	0.5712058
236	0xbfcebf4d	-1.615213
237	0x3f0e9fb8	0.5571246
238	0xbf76fb1e	-0.96476924
239	0x3feedef7	1.8661793
240	0x3ffae50e	1.9601152
241	0xbf2c28a5	-0.6724952
242	0x3fc63de1	1.5487634
243	0x3fa2e47d	1.2725979
244	0xbe323f05	-0.17406853
245	0x40081bd6	2.126699
246	0x3ea73319	0.32656172
247	0x3f01d827	0.5072045
248	0x3f42950f	0.76008695
249	0xbf326535	-0.6968568
250	0x3d7a0eed	0.06104939
251	0x3d82968a	0.06376369
252	0xbfc64e0f	-1.5492572
253	0x3edcc798	0.43121028
254	0x3f7265bf	0.946865
255	0x3f6e30a1	0.9304295

pos_emb.weight f4 [50, 64]
0	0x3fe9a797	1.8254269
1	0xbe8cdd85	-0.27512756
2	0x3f008094	0.50196195
3	0xbed231f2	-0.4105373
4	0xc012df6c	-2.2948866
5	0x3f8965da	1.0734208
6	0x3f8ede86	1.1161659
7	0x3f075cc1	0.52875906
8	0xbfa57aa9	-1.2928058
9	0x3eeee179	0.46656397
10	0x3fdfdf90	1.7490101
11	0xbf4c28d3	-0.7974979
12	0xbbee0829	-0.0072641564
13	0x3dcdf5db	0.10056659
14	0xbf38044a	-0.71881545
15	0x3eea7c02	0.45797735
16	0x3faa227c	1.3291774
17	0x3ff3e3e6	1.9053924
18	0xbed42bc2	-0.41439635
19	0xbf4a28eb	-0.78968686
20	0x3d90130d	0.07034884
21	0xbf1a0a4c	-0.6017196
22	0xbf90e768	-1.132062
23	0x3ff757b6	1.9323642
24	0xbfa4743d	-1.2847973
25	0xbf66e896	-0.9019865
26	0xbf8a5282	-1.0806429
27	0x3eeb2ca3	0.45932493
28	0x3f8507fc	1.0393062
29	0xbf5bf478	-0.85919905
30	0x3f4950c6	0.78638875
31	0x3feb07c3	1.8361744
32	0xbdb1180d	-0.086471654
33	0x3ed5f5ad	0.41788998
34	0x3fb2cbc9	1.396844
35	0xbf0ca119	-0.54933316
36	0x3fc2dc3b	1.5223459
37	0x3e88b860	0.26703167
38	0x3f91a09d	1.137714
39	0xbf2608e3	-0.6485731
40	0xbf8d05ee	-1.1017435
41	0xbe82a277	-0.25514576
42	0x3f3f692c	0.74769855
43	0xbf18f193	-0.59743613
44	0xbeb482b9	-0.35255983
45	0xbde30a4b	-0.110859476
46	0xbf5e6578	-0.8687358
47	0xc00fedfa	-2.2489
48	0x3f9aa6f0	1.2082195
49	0xbf4fe036	-0.81201494
50	0x3e96b97a	0.29438382
51	0xbf485d45	-0.7826732
52	0xbea8731c	-0.3290032
53	0xbf3b49e0	-0.731596
54	0xc0115b4d	-2.2711976
55	0x3ee002a0	0.43752003
56	0x3eb69c43	0.35666093
57	0x3f3e22e0	0.74271965
58	0xbfaa0b11	-1.3284627
59	0x3e916458	0.2839687
60	0xc01629b1	-2.3462946
61	0x3e2c4389	0.16822638
62	0xc02b0b0a	-2.6725488
63	0xbedfbf46	-0.43700618
64	0xbf5c7484	-0.8611529
65	0xbf5391e2	-0.82644475
66	0xc03a8905	-2.914613
67	0x3f421965	0.7582
68	0xc0250d18	-2.5789242
69	0x3f0a25f8	0.53964186
70	0x402106a6	2.5160308
71	0x3f76fdda	0.96481097
72	0x3ea1f04e	0.3162865
73	0x3f993d12	1.1971762
74	0xbec1e38a	-0.3786891
75	0xbe9db1c7	-0.30799696
76	0x3e7eb22c	0.24872655
77	0xbda1dc12	-0.07903303
78	0x3e95a42c	0.29226816
79	0xbf1b314e	-0.6062211
80	0xbe3c94bb	-0.18416111
81	0xbefa20a9	-0.48853043
82	0xbfbe9d3b	-1.4891733
83	0xbf4b1dd1	-0.7934237
84	0x3fb91f90	1.4462757
85	0x3f38ff0f	0.7226419
86	0x3df0522f	0.11734425
87	0x40004a00	2.0045166
88	0x3f399392	0.724908
89	0x3f8f9f6c	1.1220527
90	0xbf1dac79	-0.615913
91	0xbc22cff9	-0.00993728
92	0x3e0ff9bc	0.1406011
93	0x3f7f8467	0.99811405
94	0xbf8fc360	-1.1231499
95	0xbc5b60e7	-0.013389803
96	0x3f4a98cb	0.79139394
97	0xbf73148f	-0.94953245
98	0x3e42a744	0.1900912
99	0x3f1eec7f	0.62079614
100	0x3ee701a0	0.45118427
101	0xbfccf5f2	-1.6012557
102	0x3ff50c07	1.9144295
103	0x3ea75a53	0.326861
104	0x3e5e9d5e	0.21739718
105	0xbf86d95b	-1.0535082
106	0xbff1414f	-1.8848056
107	0xbfbff5ac	-1.4996848
108	0xc02ce4eb	-2.701472
109	0x3f9647b5	1.1740633
110	0x3e9c4d87	0.305279
111	0xbf5b0bc7	-0.85564846
112	0xbfa4145c	-1.2818713
113	0x3f222d50	0.6335039
114	0xbf76de2e	-0.9643277
115	0xbf896d0c	-1.0736403
116	0xc0033bcd	-2.050525
117	0xbf14a45f	-0.5806331
118	0x3e0a2569	0.13490833
119	0xbee4ce01	-0.44688419
120	0xbfaf3270	-1.3687267
121	0xbf728944	-0.947407
122	0x3fad4252	1.3535864
123	0x3f963549	1.1735011
124	0xbf23e207	-0.64016765
125	0x3e8856ef	0.26628825
126	0xbf1d0690	-0.6133814
127	0x3f8893d7	1.0670117
128	0xbf204ed7	-0.626203
129	0xc01032ad	-2.253093
130	0x3fbf6036	1.4951236
131	0x3ff8d55d	1.9440113
132	0xbf9f9bf9	-1.2469474
133	0xbf2d0c2e	-0.6759671
134	0xbfad86de	-1.3556783
135	0xbf28f40c	-0.65997386
136	0xbf1337e9	-0.5750719
137	0xbf329823	-0.6976339
138	0xbfc0b0eb	-1.5053991
139	0x3fff25f3	1.9933456
140	0x3ff6fe6d	1.9296395
141	0x3db28023	0.087158464
142	0x3fe3c9a8	1.7795916
143	0xbff89d18	-1.9422941
144	0xbfa3146d	-1.2740608
145	0x3f9f77f8	1.2458487
146	0x3e51da12	0.20493343
147	0x3e4b4ee2	0.1985431
148	0xbdd1cabe	-0.10243748
149	0x40067492	2.100865
150	0x4036f9e2	2.8590016
151	0xbf0ec9ec	-0.5577686
152	0xbe36c168	-0.17847216
153	0xbf873a4e	-1.0564668
154	0x3f545d75	0.82955104
155	0x3f03e7eb	0.51525754
156	0x3f167365	0.5876983
157	0xbe8f6e5f	-0.28013894
158	0x3fa0d6f1	1.2565595
159	0xbe4430bd	-0.19159217
160	0x3fd4db81	1.6629487
161	0xbf248b47	-0.6427502
162	0x3f487565	0.7830413
163	0x3f77b75b	0.96764153
164	0x3f8ed99b	1.1160158
165	0x3e8f5b7c	0.27999485
166	0x3fddf337	1.7339848
167	0x3f6ffe85	0.9374774
168	0xbfd96f07	-1.6987008
169	0xbf9f5085	-1.2446448
170	0xbfdf50ac	-1.7446494
171	0xbea39e94	-0.31956923
172	0xbe3b036c	-0.18263024
173	0xbf2dca83	-0.67887133
174	0xbf082694	-0.53183866
175	0xbfcee89a	-1.6164734
176	0x3e6a2f79	0.22869672
177	0x3f4eca00	0.8077698
178	0x400598c2	2.0874486
179	0xbfcaa6a6	-1.5832107
180	0xbef47cfd	-0.47751608
181	0x3f5dc387	0.86626476
182	0xbf9e3f97	-1.2363156
183	0xc025cd2a	-2.5906472
184	0x3e25c5f4	0.16188794
185	0x3f931e1c	1.1493564
186	0xbfe0fc6f	-1.7577037
187	0xbebe06d4	-0.37114584
188	0x3d70e621	0.058813218
189	0xbe8dbed8	-0.27684665
190	0xc020c950	-2.5122871
191	0xc0072409	-2.1115744
192	0x3f4149dd	0.7550333
193	0x3f97e0b9	1.1865455
194	0xbf0519d9	-0.51992565
195	0xbfcf4955	-1.6194254
196	0x3d44872e	0.04798048
197	0x3d1dc5de	0.03851878
198	0xbf74ba8e	-0.9559716
199	0xbf69299e	-0.9107913
200	0x3f49d0b6	0.7883409
201	0x3ed01b30	0.40645742
202	0xbf531fb4	-0.8247025
203	0xbf975304	-1.1822209
204	0x3f174b3e	0.59099185
205	0x3f3ee31d	0.745653
206	0xbf127e1a	-0.57223666
207	0x3f020d11	0.5080119
208	0xbf29e724	-0.6636832
209	0xbf0e4304	-0.5557101
210	0xbf0272f1	-0.50956637
211	0xbf64ae60	-0.89328575
212	0x3f63ccb2	0.88984215
213	0xbbc0caf3	-0.0058835684
214	0x3f8cde97	1.1005429
215	0xbead93bf	-0.33901784
216	0xc0147780	-2.3197937
217	0x3fbadb63	1.4598202
218	0x3e27f110	0.16400552
219	0x3f894494	1.0724053
220	0x3e27f8db	0.16403525
221	0x3e8070f2	0.2508617
222	0xbf21e10e	-0.6323403
223	0xbf824b77	-1.017928
224	0x3fa06035	1.252936
225	0xbeff79f2	-0.49897724
226	0x3f7992a7	0.974894
227	0x3daad378	0.08341116
228	0xbfe7fe3c	-1.8124461
229	0xbf965a19	-1.1746246
230	0x3f54e786	0.83165777
231	0x3f09b992	0.5379878
232	0x3eb5eccd	0.35532227
233	0x3ffa016d	1.9531685
234	0x3fd694ab	1.676412
235	0x3fb55986	1.4167945
236	0xbd89827d	-0.06714342
237	0x3e6a58b9	0.22885408
238	0x3db83bc1	0.08995772
239	0xbeb5bb90	-0.3549466
240	0xbe9e7078	-0.30945182
241	0xbe71b94a	-0.23605838
242	0xbf294dcf	-0.6613435
243	0xbe0db3e2	-0.13838151
244	0x3f0e15e3	0.55502146
245	0xbf70d23c	-0.9407079
246	0xbeafd116	-0.34339207
247	0x3c229faf	0.009925767
248	0xbe19173a	-0.14950266
249	0xbfa33a2e	-1.275213
250	0x3eaa6b7f	0.33285138
251	0x3f5328b2	0.8248397
252	0x3f94b58a	1.1617901
253	0xbf58dc67	-0.8471131
254	0xbf7bbf03	-0.98338336
255	0xbf0defa6	-0.554438

attention_blocks.0.attention.in_proj_weight f4 [192, 64]
0	0xbd5f7d53	-0.054562878
1	0xbdecaf1d	-0.11556838
2	0x3c30ac5e	0.010783283
3	0xbdc10bb4	-0.0942606
4	0xbdef3a9f	-0.11681103
5	0xbdd680e5	-0.104738034
6	0xbd2e487c	-0.042549595
7	0x3db040ed	0.086061336
8	0xbe05e4c6	-0.13075551
9	0x3dc3f646	0.09568457
10	0xba9ff034	-0.0012202323
11	0x3d868a14	0.06569305
12	0xbd885e26	-0.066585824
13	0x3d956bc1	0.07295943
14	0x3d959f35	0.07305757
15	0x3d9977e7	0.07493573
16	0xbb562130	-0.003267359
17	0x3da095a1	0.078410394
18	0x3defdbb3	0.11711826
19	0xbd83f1be	-0.06442593
20	0xbdf5981c	-0.11991903
21	0x3da41de9	0.080135174
22	0xbdc4dce6	-0.096124455
23	0x3da97924	0.08275059
24	0x3e1665af	0.14687227
25	0x3d6c952a	0.05775944
26	0xbe089ca6	-0.13341007
27	0xbcc0c9e6	-0.023533773
28	0xbd5cb87c	-0.053886876
29	0xbdb3a962	-0.087725416
30	0xbb0b1db0	-0.0021227412
31	0xbccd786d	-0.025081838
32	0xbb797c12	-0.0038068336
33	0x3d465f88	0.04843095
34	0xbe0124e5	-0.1261173
35	0x3dc30c57	0.09523838
36	0xbdb92305	-0.090398826
37	0xbdf7c878	-0.12098783
38	0x3de695a8	0.112590134
39	0x3bfbbc42	0.007682354
40	0xbe05f949	-0.13083376
41	0xbdde2c4e	-0.10848294
42	0x3c9e674d	0.019336367
43	0xbd9266e0	-0.07148528
44	0x3db0783f	0.08616685
45	0x3d5908f7	0.052987065
46	0xbdb92ae4	-0.09041384
47	0x3d8888f7	0.06666749
48	0xbd8a6f69	-0.06759531
49	0xbd2f47c1	-0.04279304
50	0x3e0d1984	0.13779265
51	0xbdc4520e	-0.09585963
52	0xbda92abe	-0.082601056
53	0xbdf9f54a	-0.12204988
54	0xbccf0770	-0.025272101
55	0xbe14487b	-0.14480774
56	0xbdc4888d	-0.095963575
57	0xbc9b9db4	-0.018996097
58	0xbd57342c	-0.05253999
59	0x3db48b99	0.08815689
60	0x3d8cd223	0.06876018
61	0x3deeab6c	0.1165379
62	0x3df3a8a1	0.11897398
63	0xbd84feb6	-0.06493895
64	0x3dec686e	0.11543356
65	0x3ddd195d	0.10795853
66	0x3cb74989	0.022373931
67	0xbe06fede	-0.13183162
68	0xbdf8673d	-0.12129066
69	0x3e04cf9c	0.12969822
70	0xbd3c897c	-0.046029553
71	0x3e0fa1bf	0.14026545
72	0x3d857b2c	0.06517634
73	0xbc9934e1	-0.018701972
74	0xbce29b91	-0.02766207
75	0xbd4f6542	-0.050633676
76	0x3d055f05	0.03256132
77	0xbdaf8f10	-0.08572209
78	0x3df70c05	0.120628394
79	0xbdec8405	-0.11548618
80	0x3aa2bb06	0.0012415356
81	0x3e348cb9	0.17631806
82	0xbd986920	-0.07441926
83	0x3d72e37c	0.059298977
84	0x3d3e0190	0.04638821
85	0x3e07a886	0.1324788
86	0x3a9978c8	0.0011708969
87	0xbdc3d6f8	-0.095624864
88	0x3de48caf	0.11159646
89	0x3cd68656	0.026187103
90	0xbdd1d18b	-0.10245045
91	0x3da09496	0.078408405
92	0x3d1e43d9	0.038638923
93	0x3d9fddb6	0.0780596
94	0x3e192ae3	0.14957766
95	0x3dbd4fb6	0.09243719
96	0x3e0acd7e	0.13554952
97	0xbda5dc01	-0.08098603
98	0x3d3fb353	0.046801876
99	0xbd830e0a	-0.06399162
100	0xbdf5e4e8	-0.12006551
101	0xbd8ca1de	-0.06866811
102	0x3da0176f	0.078169696
103	0x3db8d7bf	0.09025525
104	0xbda6e299	-0.08148689
105	0xbdfbb0a6	-0.122895524
106	0xbe3e31b7	-0.18573652
107	0xbdf882ec	-0.12134346
108	0xbd9adb74	-0.075613886
109	0xbe1f43fc	-0.15553278
110	0xbdd3e212	-0.10345854
111	0xbd2c6cc5	-0.04209592
112	0x3da01afb	0.07817646
113	0xbbd00ce2	-0.006349192
114	0x3c129a5c	0.008947935
115	0xbc53864f	-0.01291044
116	0x3dd5aa7e	0.104329094
117	0xbdab39d2	-0.08360638
118	0xbca00110	-0.019531757
119	0xbd13526c	-0.035967276
120	0x3e1c9755	0.15292104
121	0xbd37f8fa	-0.044915177
122	0xbdab4ff7	-0.083648615
123	0x3cf17fbd	0.029479856
124	0xbc28db11	-0.010306136
125	0xbde346f1	-0.110975154
126	0x3d862c0a	0.065513685
127	0x3d942998	0.07234496
128	0xbc4fd980	-0.012686133
129	0x3dba247d	0.09088991
130	0xbd0ec39b	-0.034854513
131	0xbc37d935	-0.01122122
132	0xbdeb7d91	-0.11498559
133	0xbd16b7e7	-0.036796477
134	0x3e121bec	0.14268464
135	0xbde53270	-0.11191261
136	0x3cb9f1e1	0.022698345
137	0xbd7f9e4e	-0.06240683
138	0xbe099677	-0.13436304
139	0xbd6cdac2	-0.05782581
140	0x3e1f7450	0.15571713
141	0xbda8548b	-0.0821925
142	0x3d06fbf2	0.032955118
143	0xbd61fa14	-0.055170134
144	0x3df6cd93	0.12050929
145	0xbcf04675	-0.029330472
146	0xbd69fbeb	-0.057125013
147	0x3db82cf7	0.08992951
148	0x3cc7f51e	0.024408873
149	0x3d99619f	0.07489323
150	0xbdd70a46	-0.105000064
151	0x3d8ea0e1	0.06964279
152	0xbdafc635	-0.08582727
153	0xbaa630b0	-0.0012679305
154	0x3da630f7	0.08114808
155	0x3dfcda6f	0.123463504
156	0x3d8f2e07	0.06991201
157	0xbe00e2e0	-0.12586546
158	0xbe0963ea	-0.1341702
159	0xbd458126	-0.04821887
160	0xbd4b4f6e	-0.049636297
161	0xbbd35c17	-0.006450187
162	0xbdf225a4	-0.11823586
163	0xbd365c46	-0.044521593
164	0xbdfff1fe	-0.12497328
165	0x3e2b0c76	0.16703972
166	0xbd61e8a1	-0.055153493
167	0xbdf3aa61	-0.118977316
168	0x3d2f98a5	0.042870183
169	0x3c10dc17	0.008841536
170	0x3e06e3f5	0.13172896
171	0xbdd0cf29	-0.10195763
172	0x3d519e78	0.05117652
173	0x3dc4e2c5	0.09613565
174	0x3caa11c6	0.020760428
175	0x3df26b4f	0.11836874
176	0xbe0384b9	-0.12843598
177	0x3dbb4a46	0.09145026
178	0xbd09f41b	-0.033680063
179	0xbd3590f5	-0.044327695
180	0xbdd52251	-0.10406936
181	0xbd79a120	-0.060944676
182	0xbca6dfa0	-0.020370305
183	0x3da7d848	0.08195549
184	0xbdc94281	-0.09827138
185	0xbc02fa56	-0.007994255
186	0xbd9f480b	-0.07777413
187	0xbc98d167	-0.018654538
188	0xbdfbef0d	-0.12301455
189	0xbd9c40ac	-0.07629523
190	0xbc51d1bb	-0.012806351
191	0x3cbb9977	0.022900326
192	0x3ca3974b	0.019969603
193	0xbda58519	-0.08082027
194	0x3d7b71c5	0.061387796
195	0x3cdd39bb	0.027005067
196	0x3dd65eac	0.10467276
197	0x3df0f026	0.11764555
198	0xbd384476	-0.044987164
199	0x3c1fe9ee	0.009760363
200	0x3e16a356	0.14710745
201	0x3b523075	0.003207234
202	0x3ce800c4	0.028320678
203	0x3ddd905d	0.10818551
204	0xbc75405f	-0.014968961
205	0x3e08bada	0.13352528
206	0xbd3f5409	-0.046711
207	0x3d800722	0.062513605
208	0xbda24707	-0.07923704
209	0x3ce15d86	0.027510416
210	0x3de1adcd	0.11019478
211	0x3e2b9cf1	0.16759087
212	0xbb4599b5	-0.003015143
213	0xbe10ad49	-0.14128603
214	0x3e30aedd	0.17254205
215	0xbe26b9e4	-0.16281849
216	0x3de6d845	0.11271719
217	0xbd6cb940	-0.057793856
218	0x3e0e3721	0.13888218
219	0xbde555ee	-0.111980304
220	0xbc69060c	-0.014222633
221	0x3d414814	0.04718788
222	0x3dccf3dd	0.10007451
223	0xbd01afb4	-0.031661704
224	0xbdd2ee43	-0.10299351
225	0x3dc1c405	0.09461216
226	0x3cc0234f	0.023454336
227	0xbdb2fa9a	-0.08739205
228	0x3c01bf60	0.0079191625
229	0xbd7cfa2c	-0.06176202
230	0x3bd14e9f	0.006387546
231	0xbd32ce8f	-0.04365402
232	0xbd562eef	-0.052290853
233	0x3dd28b59	0.10280485
234	0xbd8f6fb5	-0.07003728
235	0x3d10f412	0.035389014
236	0xbdef33cb	-0.116798006
237	0x3df6af0c	0.12045106
238	0xbdbfe31c	-0.093694896
239	0xbd9c589e	-0.0763409
240	0xbd4882bf	-0.048952814
241	0xbc9cdf66	-0.019149493
242	0x3d88ab36	0.06673281
243	0xbccd5f38	-0.025069818
244	0x3dabadac	0.08382735
245	0x3d15c003	0.03656007
246	0xbde55df9	-0.111995645
247	0x3de298b5	0.11064283
248	0xbe17d369	-0.1482674
249	0x3bc93e01	0.0061414246
250	0xbdad49d2	-0.08461346
251	0x3d062404	0.03274919
252	0x3c06c3ea	0.0082254205
253	0x3e0a2f25	0.13494547
254	0x3d9114da	0.07084055
255	0xbcd899ea	-0.02644058

attention_blocks.0.attention.in_proj_bias f4 [192]
0	0x39998936	0.00029284664
1	0x3d10ea81	0.03537989
2	0xbd8bd3c7	-0.06827503
3	0xbda34f24	-0.07974079
4	0x3d4eabac	0.050456688
5	0xbd7b5fad	-0.06137054
6	0xbe0aeb41	-0.13566305
7	0xbce385cb	-0.027773758
8	0x3cd4bbb1	0.025968404
9	0xbc1d3b34	-0.009596635
10	0xbd8c46c3	-0.06849434
11	0xbd6502ff	-0.05591106
12	0x39196a72	0.00014630871
13	0xbbb25822	-0.005442635
14	0xbaa60d17	-0.0012668696
15	0xbd27dfc2	-0.040984876
16	0x3e1d6adc	0.15372795
17	0xbe58b6ea	-0.21163526
18	0x3d82b00c	0.063812345
19	0x3e1733d6	0.14765868
20	0x3e012caa	0.12614694
21	0x3d1f26ff	0.03885555
22	0x3c75add4	0.014995057
23	0x3cf9357b	0.03042101
24	0xbbeaa353	-0.007160583
25	0x3d25239d	0.040317167
26	0xbcc38681	-0.023867847
27	0xbbe38b03	-0.0069440617
28	0x3d39ea8b	0.045389693
29	0x3cda6128	0.026657656
30	0xbc7a07cc	-0.015260648
31	0xbd88401b	-0.06652852
32	0x3d98a6a1	0.07453657
33	0x3da1ff46	0.07910018
34	0x3df0a785	0.11750702
35	0xbdeb1409	-0.11478431
36	0xbd286a35	-0.041116912
37	0x3d28fae5	0.041254897
38	0xbd111e09	-0.035429034
39	0x3caf0d6a	0.021368701
40	0x3ce07c03	0.027402883
41	0x3d8cedf2	0.06881322
42	0xbdbb539d	-0.09146807
43	0x3afdafea	0.0019354795
44	0xbd5a8f27	-0.053359177
45	0xbc9d8616	-0.019228976
46	0x3dc0adc5	0.09408144
47	0x3d075d34	0.03304787
48	0xbcedee25	-0.02904422
49	0x3dfa5ec3	0.122251056
50	0x3d951456	0.072792694
51	0x3c49945c	0.012303438
52	0x3c787bc3	0.015166226
53	0xbd2efd86	-0.042722248
54	0x3d740ad2	0.05958063
55	0x3e084b98	0.13310087
56	0x3d7df3b6	0.062
57	0x3d9268db	0.07148906
58	0x3c49b21f	0.012310534
59	0x3c8e0d58	0.017340347
60	0x3dd167d9	0.102248855
61	0xbceb5a0a	-0.028729457
62	0xbd08c7c2	-0.03339363
63	0x3c8de861	0.017322721
64	0x3a89fd2f	0.0010527725
65	0xba832f52	-0.0010008609
66	0xbacb9216	-0.0015531208
67	0xb80e3aa3	-3.3910048e-05
68	0xb932734a	-0.00017018351
69	0x39a75c00	0.00031921268
70	0xba26d350	-0.00063638855
71	0x3a657e82	0.0008754508
72	0xb9e15388	-0.0004297758
73	0xba09baa2	-0.0005253946
74	0xbaac35c5	-0.0013138583
75	0x38b5235b	8.637338e-05
76	0x3b232f06	0.0024899854
77	0x3aa5b314	0.001264187
78	0xba21ce6d	-0.00061724224
79	0x3a808388	0.0009804824
80	0x3a2de609	0.0006633704
81	0xb99c0ce2	-0.00029764237
82	0xb977d1dc	-0.00023633934
83	0xba7bea16	-0.00096097717
84	0xba317726	-0.00067697687
85	0x3a357000	0.00069212914
86	0x39137275	0.00014061651
87	0x3a1b95ee	0.0005935122
88	0x38aa3251	8.115604e-05
89	0x3ad9d370	0.00166188
90	0xb99a2061	-0.00029397293
91	0xba322e24	-0.00067970366
92	0xbad7d12b	-0.0016465535
93	0xba78deb2	-0.00094936334
94	0xba598583	-0.0008297788
95	0x3a343047	0.0006873649
96	0xba6a2d91	-0.00089331815
97	0xba58e9a4	-0.0008274561
98	0x3a34886e	0.00068867847
99	0xba97d491	-0.0011583735
100	0xba54f4f0	-0.0008123657
101	0xbb411920	-0.0029464439
102	0xba0474a6	-0.00050527824
103	0xb90adfd4	-0.00013244088
104	0xba22bb90	-0.00062077586
105	0x3adfe9e4	0.0017083255
106	0xba3de0b3	-0.00072432606
107	0x39dfaee1	0.0004266417
108	0xba69c220	-0.00089171715
109	0x3ab97a64	0.0014150855
110	0x3a3b9c84	0.00071568065
111	0xbaf11f74	-0.0018396215
112	0xb8f4cae9	-0.000116726216
113	0xb95dd415	-0.00021155209
114	0xb8437f8e	-4.6610417e-05
115	0xb9bf555f	-0.00036493965
116	0xb9dbebd8	-0.00041946652
117	0xba69c07a	-0.0008916926
118	0x3ad11228	0.0015950846
119	0x3836870e	4.351796e-05
120	0xb98c97ce	-0.00026815984
121	0x3a368f0b	0.0006964064
122	0x3a91cda6	0.001112391
123	0xba1c212d	-0.00059558713
124	0xba29364f	-0.0006454931
125	0x39db7460	0.0004185764
126	0xba72a7e9	-0.0009256588
127	0x3855ce87	5.09755e-05
128	0x3e222b70	0.15836883
129	0xbe552d9e	-0.20818183
130	0xbcca72ad	-0.024712885
131	0xbe13f40b	-0.14448564
132	0x3de4cffe	0.11172484
133	0x3d1afb2b	0.03783719
134	0x3e1a4651	0.15065886
135	0x3da521b4	0.08063069
136	0x3d88b7dc	0.066756934
137	0xbe2c5306	-0.16828546
138	0x3d80130c	0.06253633
139	0xbd6f380f	-0.05840307
140	0xbda640e8	-0.08117849
141	0x3d801700	0.06254387
142	0xbe1aea18	-0.15128362
143	0xbdcb6f04	-0.09933284
144	0xbdc582ec	-0.09644112
145	0x3db9eb79	0.09078116
146	0xbe506535	-0.20351107
147	0xbe394c25	-0.18095453
148	0x3e154c26	0.1457983
149	0xbe02f7c0	-0.12789822
150	0x3d3acf38	0.045607775
151	0x3e41d50b	0.18928926
152	0xbe07ed09	-0.13274015
153	0xbdf2bdcc	-0.11852607
154	0x3e47a676	0.19497094
155	0xbe2a430e	-0.16627142
156	0x3cd49aba	0.025952686
157	0x3ddf6b22	0.10909106
158	0xbdfe3909	-0.12413222
159	0x3bbd419b	0.005775643
160	0x3dcd39ec	0.10020813
161	0x3d482298	0.048861116
162	0xbe38e63c	-0.18056577
163	0x3e054d2f	0.13017724
164	0xbe2d7c50	-0.16941953
165	0xbda5282c	-0.08064303
166	0x3dc9e08e	0.098572835
167	0xbcb58837	-0.022159679
168	0xbd524783	-0.05133773
169	0xbdb351ce	-0.087558374
170	0x3e415dba	0.1888341
171	0xbdcf56dd	-0.1012399
172	0xbe0086d4	-0.12551433
173	0xbd49f039	-0.04930136
174	0xbdffbebb	-0.12487551
175	0x3e2ac182	0.1667538
176	0x3e157673	0.14595966
177	0xbdf04859	-0.11732549
178	0x3d52926e	0.051409177
179	0xbe10787c	-0.14108461
180	0x3e3bdb5c	0.18345398
181	0xbe81ce8a	-0.2535289
182	0xbe481e8e	-0.19542906
183	0xbe586875	-0.21133597
184	0x3d02b348	0.031909257
185	0xbe0644ff	-0.13112257
186	0x3d82dda1	0.063899286
187	0xbcdd853c	-0.02704107
188	0x3d96c89d	0.07362483
189	0x3d897c90	0.067132115
190	0x3dfa6841	0.12226916
191	0x3e13eafc	0.14445108

attention_blocks.0.attention.out_proj.weight f4 [64, 64]
0	0x3d8bf998	0.068347156
1	0xbddb1202	-0.10696794
2	0xbdd2e15a	-0.10296889
3	0x3d90a859	0.0706336
4	0x3db0a3b6	0.086249754
5	0xbdd7510e	-0.10513507
6	0x3de9ae97	0.114102535
7	0x3deae0ac	0.11468634
8	0x3d330be8	0.043712527
9	0xbd87c853	-0.06630006
10	0x3c37d5fc	0.011220451
11	0xbceffffc	-0.029296868
12	0xbbbfff78	-0.0058593117
13	0x3dd6a9f5	0.104816355
14	0x3cb3701c	0.021904044
15	0x3d885333	0.06656494
16	0x3cf54414	0.029939689
17	0x3da9356a	0.08262141
18	0x3cb678e9	0.022274451
19	0xbddcf581	-0.10789014
20	0x3e0e7d28	0.13914931
21	0xbe1e1101	-0.15436174
22	0xbd4332e8	-0.04765597
23	0x3dc31046	0.09524588
24	0xbc02920b	-0.00796939
25	0xbd596a38	-0.053079814
26	0x3df5eaed	0.12007699
27	0xbd626cb5	-0.055279452
28	0x3d9a68dc	0.075395316
29	0x3dc702ce	0.09717332
30	0x3d31ae7a	0.043379284
31	0x3cea3792	0.028590951
32	0xbb492cb5	-0.0030696813
33	0x3d6799bd	0.0565431
34	0xbdef1959	-0.116747566
35	0x3df28a70	0.11842811
36	0xbdcf8a10	-0.10133755
37	0x3dce7e3e	0.100826725
38	0xbd49d903	-0.049279224
39	0x3b2c3adb	0.0026280198
40	0x3e124969	0.14285816
41	0xbda156ac	-0.078778595
42	0x3dba6e4c	0.09103069
43	0xbd1050f4	-0.035233453
44	0x3df5c116	0.11999719
45	0x3c332657	0.010934434
46	0x3d35e9a3	0.044412266
47	0x3e04446e	0.12916729
48	0x3c99c48f	0.018770484
49	0x3d3238f5	0.04351135
50	0xbd86a26e	-0.0657395
51	0xbdd109b3	-0.10206928
52	0x3c2af677	0.010434738
53	0x3d19e114	0.037568167
54	0x3cc49e91	0.024001392
55	0xbdd0c984	-0.10194686
56	0xbdf0089a	-0.117203906
57	0x3dd1d5d8	0.102458656
58	0x3df87dc7	0.12133365
59	0xbd64993a	-0.05581019
60	0x3b1df9e5	0.0024105248
61	0x3dceb840	0.10093737
62	0x3d3e24e3	0.046421897
63	0xbd779ac2	-0.060450323
64	0xbd19d8f8	-0.037560433
65	0x3e1e0ae2	0.15433839
66	0xbd35923b	-0.04432891
67	0x3d96a450	0.07355559
68	0xbcb53a44	-0.02212251
69	0xbd95911f	-0.0730307
70	0x3d5ec56b	0.05438749
71	0x3ce6f9fd	0.028195376
72	0xbbba7852	-0.005690613
73	0xbd7b30bd	-0.061325777
74	0xbc8789c5	-0.016545186
75	0x3d6f79fd	0.058465946
76	0xbd86a26f	-0.065739505
77	0xbd798293	-0.06091554
78	0x3e08a800	0.13345337
79	0x3e028b35	0.12748416
80	0xbdd91041	-0.10598803
81	0xbe153461	-0.14570762
82	0xbc575f6d	-0.01314531
83	0xbd1bac10	-0.03800589
84	0xbc9360da	-0.017990518
85	0xbd0321f4	-0.032014802
86	0xbdfa1e90	-0.122128606
87	0xbe014698	-0.12624586
88	0x3df85b71	0.12126816
89	0xbd85eb30	-0.06538999
90	0x3c9098a1	0.017650904
91	0x3ddb9ebb	0.10723635
92	0xbd80e87b	-0.06294342
93	0xbe034511	-0.12819315
94	0xbe06a173	-0.13147525
95	0x3c2fffc1	0.010742129
96	0x3ca4faf5	0.020139197
97	0x3c85a636	0.016314607
98	0x3d9b3590	0.075785756
99	0xbdbc23d7	-0.091865234
100	0x3e370e44	0.17876536
101	0x3b0859e6	0.0020805537
102	0xbd8b95f3	-0.0681571
103	0x3dc4e13c	0.096132725
104	0x3bfeb8c6	0.0077734916
105	0x3d24a0de	0.040192477
106	0xbd75506d	-0.059891153
107	0x3d57cb6d	0.052684236
108	0xbdb743b1	-0.08948458
109	0xbd0cad41	-0.034344915
110	0x3e03d10e	0.12872717
111	0xbd0d3e12	-0.034483023
112	0xbdb4f889	-0.08836467
113	0xbdb9faa7	-0.09081011
114	0xbd4e9a9c	-0.050440416
115	0xbdaa47e5	-0.08314494
116	0xbe2e18e4	-0.17001683
117	0xbc8aa309	-0.016923444
118	0x3c647277	0.013943306
119	0x3d84ba0a	0.06480797
120	0x3d6df543	0.058095228
121	0x3d46b652	0.048513718
122	0x3daaa4f8	0.083322465
123	0xbda8a405	-0.08234409
124	0xbe251da9	-0.16124596
125	0xbe01f3eb	-0.12690704
126	0x3d6e1bed	0.0581321
127	0xbde24376	-0.110480234
128	0x3dabb53f	0.08384179
129	0xbe14d9d0	-0.14536214
130	0x3dae1338	0.084997594
131	0xbe0af986	-0.13571748
132	0xbd76a38d	-0.060214568
133	0xbdc0b845	-0.094101466
134	0x3d95be75	0.073117174
135	0x3dd98c18	0.10622424
136	0xbdb9083f	-0.09034776
137	0xbddec2af	-0.10876977
138	0xbd232eca	-0.039839543
139	0xbd92ffd1	-0.07177699
140	0x3cd30054	0.025756992
141	0xbcb24d99	-0.021765517
142	0xbcfdb6b5	-0.03097091
143	0xbdd6939e	-0.104773745
144	0xbd8c42e5	-0.068486966
145	0xbc178c9f	-0.009249835
146	0xbe111954	-0.14169818
147	0x3d0f2bd4	0.034953907
148	0x3dd62b05	0.10457424
149	0xbc747a9b	-0.01492181
150	0xbcb0edd0	-0.021597773
151	0x3d61393d	0.054986227
152	0x3df1f84c	0.11814937
153	0xbe126b9d	-0.14298864
154	0x3d36bde6	0.044614695
155	0x3c9016c6	0.017588984
156	0x3e25d504	0.1619454
157	0xbc02935f	-0.007969706
158	0xbd6b5e5d	-0.05746304
159	0x3d8d8292	0.0690967
160	0x3d330b83	0.04371215
161	0xbdf3057a	-0.11866279
162	0x3cc3c86a	0.023899276
163	0xbdb0614f	-0.0861231
164	0xbd82bac2	-0.063832775
165	0x3cb93a7c	0.022610895
166	0x3b9863cc	0.0046505686
167	0xbe1f9aee	-0.15586445
168	0x3dad69b1	0.08467425
169	0xbdb8866b	-0.09010013
170	0x3cbdeccf	0.023184208
171	0xbe0e6332	-0.13905028
172	0xbda15c18	-0.078788936
173	0xbda288f7	-0.0793628
174	0x3d359913	0.044335436
175	0x3e2d346c	0.16914529
176	0xbda6ae04	-0.081386596
177	0xbcca89e3	-0.024723953
178	0xbdb47cb1	-0.088128455
179	0xbdd91b39	-0.106008954
180	0x3da2cdef	0.07949435
181	0x3a806f01	0.0009798707
182	0x3c5b822d	0.013397736
183	0xbde750ea	-0.1129473
184	0x3e008262	0.12549737
185	0xbdece650	-0.11567366
186	0xbd5319ee	-0.0515384
187	0xbd8e51d0	-0.06949198
188	0x3c43d033	0.011951494
189	0xbddee1ec	-0.10882935
190	0xbca4ae2a	-0.02010258
191	0x3c1591e6	0.009129023
192	0x3e009fc6	0.12560949
193	0xbda5ad6e	-0.0808972
194	0xbe181129	-0.14850296
195	0xbe1832db	-0.1486315
196	0x3dc0d88e	0.094163045
197	0x3d89a93d	0.06721733
198	0xbb7f7f70	-0.003898587
199	0x3c79d14b	0.015247653
200	0x3c427b9b	0.01187029
201	0x3ddf4201	0.10901261
202	0x3d81390a	0.063097075
203	0x3d28343b	0.041065436
204	0x3d296be1	0.041362647
205	0xbc5d89b2	-0.013521599
206	0xbda1f876	-0.07908718
207	0x3d8b9817	0.06816118
208	0x3bd8ace6	0.006612408
209	0xbdb3aaca	-0.0877281
210	0xbce41cbb	-0.027845731
211	0xbdeb0e4c	-0.11477336
212	0x3b8ab387	0.004232827
213	0xbd8bbe05	-0.06823353
214	0xbdade584	-0.08491042
215	0x3cb5076f	0.022098271
216	0xbdf2996e	-0.11845671
217	0xbd9506b7	-0.072766714
218	0x3db5c645	0.088757075
219	0xbda5ea4c	-0.08101329
220	0xbdb0fe2d	-0.0864223
221	0xbcbfeb46	-0.023427617
222	0xbbe2dcfc	-0.006923316
223	0xbd1b3cca	-0.03789977
224	0x3c462878	0.012094609
225	0x3da9f7d0	0.082992196
226	0x3cfb1f3e	0.030654546
227	0xbb0397f4	-0.0020079585
228	0xbc1aef42	-0.009456458
229	0x3de388bb	0.11110064
230	0x3d671886	0.05641987
231	0xbdad9505	-0.08475689
232	0x3d5515a9	0.05202261
233	0x3cec8627	0.028872563
234	0xbbe60ca8	-0.0070205517
235	0x3bc5d3a9	0.0060371947
236	0x3cad0c48	0.02112402
237	0xbcbb4e4b	-0.022864481
238	0xbc690c80	-0.014224172
239	0xbcc79438	-0.024362668
240	0xbd4f213a	-0.050568797
241	0x3ca2d1c0	0.019875407
242	0xbdbacfd5	-0.09121672
243	0x3dba2a1a	0.090900615
244	0x3ceae77e	0.028674837
245	0xbdfd8cc2	-0.12380363
246	0x3dfb31bd	0.12265346
247	0x3c62f4f8	0.01385235
248	0xbddc2100	-0.10748482
249	0xbc922b39	-0.017842876
250	0xbda983fb	-0.082771264
251	0xbd7d2b27	-0.06180873
252	0x3de29c15	0.110649265
253	0xbda9221e	-0.082584605
254	0x3c113418	0.008862518
255	0xbd159634	-0.036520198

attention_blocks.0.attention.out_proj.bias f4 [64]
0	0x3d878164	0.06616476
1	0xbdcf449b	-0.10120507
2	0x3de1e48c	0.1102992
3	0x3dd06574	0.10175601
4	0x3cbba8b9	0.022907602
5	0x3d806d83	0.06270888
6	0xbdcd8c8e	-0.10036574
7	0x3cc40e39	0.023932563
8	0x3dac223c	0.08404967
9	0x3d4e8f42	0.05042959
10	0xbd93d0ce	-0.07217561
11	0x3d701bae	0.058620147
12	0x3c78b63b	0.015180166
13	0xbe1961b8	-0.14978683
14	0xbdcb8c33	-0.0993885
15	0xbc549b0d	-0.01297642
16	0x3db1d8fa	0.08683963
17	0xbde56df7	-0.11202615
18	0x3d7d4200	0.06183052
19	0xbd7c6858	-0.061622947
20	0x3d388254	0.045046166
21	0x3da2577a	0.07926841
22	0xbdb63ecc	-0.08898696
23	0x3daf56f7	0.08561509
24	0x3de0b781	0.109725006
25	0x3e0582c5	0.13038166
26	0xbe0b17e5	-0.13583334
27	0x3e1387b8	0.14407241
28	0x3db77b1c	0.08959028
29	0x3e161239	0.14655389
30	0x3dbcd624	0.092205316
31	0xbe10f0d6	-0.14154372
32	0xbd3a1e3c	-0.04543899
33	0xbbbae677	-0.005703743
34	0xbdc81f15	-0.097715534
35	0x3da59b70	0.08086288
36	0x3d635e5f	0.05550992
37	0x3c75df58	0.015006863
38	0xbd8399d6	-0.06425826
39	0xbcb99fc7	-0.022659196
40	0x3db255d9	0.087077804
41	0xbd8c3f89	-0.06848056
42	0xbd63517c	-0.05549763
43	0xbdd30d04	-0.10305217
44	0x3d5dd84f	0.054161366
45	0xbde08ca3	-0.10964324
46	0xbdccd5e5	-0.10001735
47	0xbd4ccb82	-0.049998768
48	0xbdb43542	-0.087992206
49	0xbd6c31b3	-0.057664584
50	0x3d875ddb	0.066096984
51	0xbd625651	-0.0552581
52	0xbb489cbb	-0.0030610997
53	0x3dc2357f	0.0948286
54	0xbc33848b	-0.010956894
55	0x3dd5a016	0.104309246
56	0x3daaab19	0.083334155
57	0xbd5357e6	-0.0515975
58	0x3de00a41	0.10939456
59	0x3b530f7b	0.0032205272
60	0x3b0784c2	0.0020678495
61	0xbdcd55ef	-0.10026156
62	0xbdb949b7	-0.09047263
63	0xbdeff175	-0.11715976

attention_blocks.0.ffn.0.weight f4 [64, 64]
0	0xbd87c245	-0.06628851
1	0xbd3cf3e7	-0.04613104
2	0xbc211a89	-0.009832987
3	0xbdeb9932	-0.11503829
4	0xbd7ded20	-0.06199372
5	0x3d9e5041	0.07730151
6	0xbd0d9eb9	-0.034575198
7	0xbd7e1ff3	-0.062042188
8	0xbcf8e16d	-0.030380929
9	0xbca082a1	-0.019593539
10	0xbdd31ec1	-0.103086
11	0x3c7cbf52	0.015426474
12	0x3d786083	0.060638916
13	0xbcc6cbc0	-0.024267077
14	0x3df643a1	0.12024618
15	0x3cb77866	0.022396278
16	0x3d4d980f	0.050193843
17	0x3e0822a9	0.13294472
18	0xbb750808	-0.003738882
19	0xbc86f56a	-0.016474444
20	0x3d05f61c	0.03270541
21	0xbd809e95	-0.06280247
22	0x3c39e0bf	0.011345088
23	0xbca0e978	-0.019642577
24	0xbd3e34f9	-0.046437237
25	0x3d96fb4a	0.07372148
26	0xbd96e484	-0.07367805
27	0xbd4534fc	-0.048146233
28	0x3ce93e25	0.028472016
29	0x3dcb8de9	0.099391766
30	0x3da6a1b4	0.08136311
31	0x3d3f144c	0.046650216
32	0xbc97e903	-0.018543726
33	0x3ccd206a	0.02503987
34	0x3de189c7	0.11012607
35	0x3d5adee3	0.053435218
36	0xbdc335b6	-0.09531729
37	0xbd9393bd	-0.07205913
38	0x3df26af6	0.118368074
39	0xbe090b1f	-0.13383149
40	0xbd91d52f	-0.0712074
41	0xbdee5dc5	-0.11638979
42	0xb9186dae	-0.00014536708
43	0x3d88d5a8	0.06681377
44	0xbd985bca	-0.074393824
45	0xbd84cb29	-0.06484062
46	0x3cf56667	0.029956056
47	0xbdeec04a	-0.1165777
48	0x3bf764e7	0.0075498703
49	0x3d19c18b	0.037538093
50	0x3c8755c4	0.016520388
51	0x3c2150e2	0.009845944
52	0x3db2e065	0.08734206
53	0x3dbda50d	0.092599966
54	0xbd499502	-0.04921437
55	0x3d0e52a6	0.03474679
56	0x3da3a7b6	0.07990973
57	0x3d8b3db5	0.06798879
58	0xbd84e98f	-0.0648986
59	0xbdd6caae	-0.10487877
60	0xbe05c1f6	-0.13062271
61	0x3dbdb37c	0.092627496
62	0x3bd4cc49	0.0064940793
63	0x3d5f1862	0.054466613
64	0x3c1d4586	0.009599095
65	0xbd8f3eaa	-0.06994374
66	0x3e085962	0.13315347
67	0xbd6679e5	-0.05626859
68	0xbd9c19fc	-0.076221436
69	0x3da26637	0.07929652
70	0xbd80394c	-0.062609285
71	0xbbc3cf40	-0.005975634
72	0x3c8b9dd9	0.017043041
73	0x3b157386	0.0022804453
74	0xbc8a5685	-0.016886959
75	0xbcb1e721	-0.021716656
76	0x3d73dd96	0.059537493
77	0xbd9ea973	-0.077471636
78	0x3e094ab5	0.13407405
79	0xbd0304a9	-0.031986866
80	0x3e1e1c19	0.15440406
81	0xbcd36d1b	-0.025808861
82	0xbd4f6d54	-0.050641373
83	0xbd86d2e0	-0.0658319
84	0x3c9f182a	0.019420702
85	0xbddcc1dd	-0.10779164
86	0xbdb050a6	-0.086091325
87	0xbc4dc103	-0.012558225
88	0xbd921e91	-0.07134736
89	0xbdf705e9	-0.12061674
90	0x3dbe1376	0.09281056
91	0x3c9d3b6a	0.01919337
92	0xbc1d2417	-0.009591124
93	0xbd978913	-0.07399192
94	0xbc8ea86a	-0.01741429
95	0xbd6bc702	-0.057562836
96	0xbc978baf	-0.018499224
97	0x3dd51562	0.10404469
98	0x3ddec419	0.108772464
99	0x3d2a18ac	0.041527435
100	0x3cc13651	0.02358547
101	0xbcd53324	-0.026025362
102	0x3dcc3b64	0.09972265
103	0xbd4236a4	-0.04741539
104	0x3d241958	0.040063232
105	0x3dbe81fc	0.09302136
106	0xbd82e261	-0.063908346
107	0x3d8c0658	0.068371475
108	0xbd9f2ad5	-0.077718414
109	0xbdd8f174	-0.105929285
110	0xbd137e61	-0.036009196
111	0xbcf4e753	-0.02989546
112	0xbdb57da1	-0.088618524
113	0xbdae3725	-0.08506612
114	0x3dafebb6	0.0858988
115	0x3bd2a0ce	0.006427861
116	0x3d84e242	0.06488468
117	0x3da07542	0.07834865
118	0xbd975226	-0.073887154
119	0xb9a3aaa4	-0.0003121692
120	0x3d20be7d	0.039244164
121	0xbe0c511e	-0.13702819
122	0x3d08d569	0.03340665
123	0x3cf1b487	0.029505027
124	0xbdd72588	-0.105052054
125	0x3dad0c8b	0.08449658
126	0x3da85331	0.082189925
127	0x3c4e9253	0.012608129
128	0xbde5b77b	-0.11216637
129	0xbda8356c	-0.082133144
130	0x3dfddf1c	0.1239607
131	0x3c7a4b52	0.015276747
132	0x3db19db3	0.08672657
133	0x3bc93c24	0.0061412025
134	0xbde5ef6d	-0.112273075
135	0x3dbc5d31	0.09197462
136	0x3cadfdff	0.021239279
137	0xbdaf7d48	-0.085688174
138	0x3dbd8333	0.0925354
139	0x3d6ff20d	0.058580447
140	0x39683c85	0.0002214779
141	0x3cd820f6	0.026382904
142	0xbd1ba834	-0.038002208
143	0xbd95e0f0	-0.07318294
144	0xbbeabb42	-0.007163436
145	0x3d8617fc	0.065475434
146	0x3d097678	0.033560246
147	0x3dd2d872	0.1029519
148	0x3ce758d6	0.028240602
149	0x3dfa5722	0.122236505
150	0xbdba9796	-0.09110944
151	0xbca070d8	-0.019585058
152	0xbcc05b2c	-0.023480974
153	0x3e1c3cf8	0.15257633
154	0x3c3c1ada	0.011481011
155	0x3d8f70d9	0.07003946
156	0x3d908542	0.07056667
157	0x3d25acf8	0.04044816
158	0xbc83fce9	-0.016111808
159	0x3c52181c	0.012823131
160	0x3cdf975c	0.027293853
161	0x3e0cb7ec	0.13742036
162	0x3d84554f	0.06461584
163	0x3e29f702	0.16598132
164	0xbdb194eb	-0.08670982
165	0xbc90e394	-0.017686643
166	0xbd9221a1	-0.071353205
167	0x3dc2691a	0.09492703
168	0x3dd05a99	0.1017353
169	0xbe151e05	-0.14562233
170	0xbd6ad44c	-0.05733137
171	0xbbb2482b	-0.005440732
172	0x3dd1a50d	0.10236559
173	0x3d7f9fe1	0.06240833
174	0xbdaa3e1a	-0.08312626
175	0x3df0de8d	0.11761198
176	0x3dc50220	0.09619546
177	0xbd125c13	-0.03573234
178	0x3d125ab3	0.03573103
179	0xbdcf2f2a	-0.10116418
180	0xbd8c0168	-0.06836206
181	0xbe0f9973	-0.1402338
182	0xbc9cb770	-0.019130439
183	0xbda27926	-0.079332635
184	0xbdc70294	-0.097172886
185	0xbddc34e8	-0.107522786
186	0x3e0509ea	0.12992063
187	0xbd63ccaa	-0.055615105
188	0x3db519c7	0.08842807
189	0x3df27171	0.118380435
190	0x3d293e1c	0.041318998
191	0x3cf17765	0.029475877
192	0x3d934646	0.07191138
193	0x3dbe5b84	0.09294799
194	0xbe11902b	-0.14215152
195	0xbdd0dfd6	-0.10198943
196	0xbdc3d8a4	-0.09562805
197	0xbdcedda6	-0.1010087
198	0xbdb48618	-0.08814639
199	0x3d897073	0.06710901
200	0x3d943376	0.07236378
201	0x3e11fa83	0.14255719
202	0xbdbf80ad	-0.09350715
203	0xbc908de0	-0.017645776
204	0xbd0c8dd4	-0.034314945
205	0xbd086328	-0.033297688
206	0xbd0e2b48	-0.034709245
207	0x3de6e9d9	0.11275072
208	0xbd6ce6bb	-0.05783723
209	0xbd821b4e	-0.06352864
210	0xbda771fa	-0.08176036
211	0x3d0b2cfc	0.033978447
212	0x3d14ecb4	0.03635855
213	0xbc797f98	-0.015228175
214	0xbd90c97a	-0.070696786
215	0x3e11f14d	0.14252205
216	0x3d94d490	0.072671056
217	0x3c6cf166	0.014461851
218	0x3cfee3aa	0.031114418
219	0xbd81b20e	-0.06332789
220	0xbd9fc6bb	-0.07801577
221	0x3e07c84a	0.13259998
222	0xbd667f2b	-0.05627362
223	0xbdb8e254	-0.09027544
224	0x3d3a3e59	0.045469616
225	0x3df7a341	0.12091685
226	0x3d979847	0.074020915
227	0xbd5f538c	-0.054523036
228	0x3d60d613	0.054891657
229	0x3d0e99df	0.03481471
230	0x3dc328fd	0.09529302
231	0xbe0fc309	-0.14039244
232	0xbd9c58f4	-0.07634154
233	0x3e05e04e	0.13073847
234	0xbddf8ed2	-0.10915913
235	0xbcd95566	-0.026529979
236	0xbd91a275	-0.07111064
237	0x3db12c6e	0.086510524
238	0x3da5a1f4	0.08087531
239	0xbe081ae0	-0.13291502
240	0xbdee7314	-0.11643043
241	0x3d186cf6	0.03721329
242	0x3d9f0953	0.0776545
243	0xbdfb001a	-0.12255879
244	0xbdadf1f2	-0.08493413
245	0x3dc08a9f	0.0940144
246	0x3d5eef8b	0.054427665
247	0xbd0ba779	-0.03409526
248	0x3dd19942	0.1023431
249	0x3dad3b5a	0.08458586
250	0x3d1329f5	0.035928685
251	0x3d6742dd	0.05646025
252	0x3b5158ae	0.0031943726
253	0x3c4b5c77	0.012412182
254	0xbd88aa0a	-0.066730574
255	0x3dd665dc	0.10468647

attention_blocks.0.ffn.0.bias f4 [64]
0	0x3c21cabc	0.009874996
1	0x3de1a8b8	0.11018509
2	0x3e49437c	0.1965465
3	0x3bf13a02	0.0073616514
4	0x3e453ea4	0.19262177
5	0xbdc7c752	-0.09754814
6	0x3d1342d5	0.035952408
7	0xbd368fc3	-0.044570696
8	0xbd9edca3	-0.07756927
9	0x3ce44e22	0.027869288
10	0x3c92038b	0.017823955
11	0x3db668f9	0.08906741
12	0x3e16a411	0.14711024
13	0x3d9ee37b	0.07758232
14	0xbda79e92	-0.08184542
15	0x3e50c133	0.203862
16	0x3dfa77bb	0.12229868
17	0x3d7dc6d1	0.061957184
18	0xbd9bbdc4	-0.07604554
19	0x3e17cbc2	0.14823821
20	0x3e16acec	0.14714402
21	0x3e56036e	0.20899746
22	0x3e136414	0.14393646
23	0xbd6dbf73	-0.05804391
24	0x3e36f31a	0.17866173
25	0xbd47ab26	-0.048747204
26	0xbd19a92e	-0.037514858
27	0x3cfd6f1c	0.03093677
28	0x3cb90a59	0.022587942
29	0x3e162254	0.14661533
30	0xbe07ec7d	-0.13273807
31	0xbdbf842c	-0.09351382
32	0x3cb02063	0.021499818
33	0xbdb8ff20	-0.09033036
34	0x3e37d2a1	0.17951442
35	0xbdc9f8c4	-0.098619014
36	0xbbf3cf26	-0.0074404655
37	0xbbfd6416	-0.0077328784
38	0x3c40df67	0.011772013
39	0x3e0cff8d	0.1376936
40	0xbd8ea678	-0.06965345
41	0x3d370c68	0.044689566
42	0xbd0ead71	-0.034833375
43	0x3e32a8f5	0.17447264
44	0x3da9f1c9	0.0829807
45	0xbdd0fa34	-0.102039725
46	0x3d41f792	0.047355242
47	0x3e0e3c07	0.13890086
48	0x3d136152	0.035981484
49	0x3e587475	0.21138175
50	0x3e14a3c8	0.14515603
51	0x3d9c9644	0.076458484
52	0x3cb5c50d	0.022188688
53	0xbd02bd31	-0.03191871
54	0x3d2e1c8b	0.04250769
55	0x3d832a16	0.06404512
56	0x3c47bb4a	0.012190649
57	0x3d783901	0.06060124
58	0xbc2c55a0	-0.0105184615
59	0xbba8f7da	-0.0051564993
60	0x3d1ca116	0.03823956
61	0x3d178bf3	0.0369987
62	0x3d8641da	0.06555529
63	0x3e0de94c	0.13858527
